DataParallel(
  (module): MSR_RDN(
    (SFENet1): Conv2d(3, 64, kernel_size=(3, 3), stride=(1, 1), padding=(1, 1))
    (SFENet2): Conv2d(64, 64, kernel_size=(3, 3), stride=(1, 1), padding=(1, 1))
    (RDBs): ModuleList(
      (0): RDB(
        (convs): Sequential(
          (0): RDB_Conv(
            (conv): Sequential(
              (0): Conv2d(64, 32, kernel_size=(3, 3), stride=(1, 1), padding=(1, 1))
              (1): ReLU()
            )
          )
          (1): RDB_Conv(
            (conv): Sequential(
              (0): Conv2d(96, 32, kernel_size=(3, 3), stride=(1, 1), padding=(1, 1))
              (1): ReLU()
            )
          )
          (2): RDB_Conv(
            (conv): Sequential(
              (0): Conv2d(128, 32, kernel_size=(3, 3), stride=(1, 1), padding=(1, 1))
              (1): ReLU()
            )
          )
          (3): RDB_Conv(
            (conv): Sequential(
              (0): Conv2d(160, 32, kernel_size=(3, 3), stride=(1, 1), padding=(1, 1))
              (1): ReLU()
            )
          )
          (4): RDB_Conv(
            (conv): Sequential(
              (0): Conv2d(192, 32, kernel_size=(3, 3), stride=(1, 1), padding=(1, 1))
              (1): ReLU()
            )
          )
          (5): RDB_Conv(
            (conv): Sequential(
              (0): Conv2d(224, 32, kernel_size=(3, 3), stride=(1, 1), padding=(1, 1))
              (1): ReLU()
            )
          )
          (6): RDB_Conv(
            (conv): Sequential(
              (0): Conv2d(256, 32, kernel_size=(3, 3), stride=(1, 1), padding=(1, 1))
              (1): ReLU()
            )
          )
          (7): RDB_Conv(
            (conv): Sequential(
              (0): Conv2d(288, 32, kernel_size=(3, 3), stride=(1, 1), padding=(1, 1))
              (1): ReLU()
            )
          )
        )
        (LFF): Conv2d(320, 64, kernel_size=(1, 1), stride=(1, 1))
      )
      (1): RDB(
        (convs): Sequential(
          (0): RDB_Conv(
            (conv): Sequential(
              (0): Conv2d(64, 32, kernel_size=(3, 3), stride=(1, 1), padding=(1, 1))
              (1): ReLU()
            )
          )
          (1): RDB_Conv(
            (conv): Sequential(
              (0): Conv2d(96, 32, kernel_size=(3, 3), stride=(1, 1), padding=(1, 1))
              (1): ReLU()
            )
          )
          (2): RDB_Conv(
            (conv): Sequential(
              (0): Conv2d(128, 32, kernel_size=(3, 3), stride=(1, 1), padding=(1, 1))
              (1): ReLU()
            )
          )
          (3): RDB_Conv(
            (conv): Sequential(
              (0): Conv2d(160, 32, kernel_size=(3, 3), stride=(1, 1), padding=(1, 1))
              (1): ReLU()
            )
          )
          (4): RDB_Conv(
            (conv): Sequential(
              (0): Conv2d(192, 32, kernel_size=(3, 3), stride=(1, 1), padding=(1, 1))
              (1): ReLU()
            )
          )
          (5): RDB_Conv(
            (conv): Sequential(
              (0): Conv2d(224, 32, kernel_size=(3, 3), stride=(1, 1), padding=(1, 1))
              (1): ReLU()
            )
          )
          (6): RDB_Conv(
            (conv): Sequential(
              (0): Conv2d(256, 32, kernel_size=(3, 3), stride=(1, 1), padding=(1, 1))
              (1): ReLU()
            )
          )
          (7): RDB_Conv(
            (conv): Sequential(
              (0): Conv2d(288, 32, kernel_size=(3, 3), stride=(1, 1), padding=(1, 1))
              (1): ReLU()
            )
          )
        )
        (LFF): Conv2d(320, 64, kernel_size=(1, 1), stride=(1, 1))
      )
      (2): RDB(
        (convs): Sequential(
          (0): RDB_Conv(
            (conv): Sequential(
              (0): Conv2d(64, 32, kernel_size=(3, 3), stride=(1, 1), padding=(1, 1))
              (1): ReLU()
            )
          )
          (1): RDB_Conv(
            (conv): Sequential(
              (0): Conv2d(96, 32, kernel_size=(3, 3), stride=(1, 1), padding=(1, 1))
              (1): ReLU()
            )
          )
          (2): RDB_Conv(
            (conv): Sequential(
              (0): Conv2d(128, 32, kernel_size=(3, 3), stride=(1, 1), padding=(1, 1))
              (1): ReLU()
            )
          )
          (3): RDB_Conv(
            (conv): Sequential(
              (0): Conv2d(160, 32, kernel_size=(3, 3), stride=(1, 1), padding=(1, 1))
              (1): ReLU()
            )
          )
          (4): RDB_Conv(
            (conv): Sequential(
              (0): Conv2d(192, 32, kernel_size=(3, 3), stride=(1, 1), padding=(1, 1))
              (1): ReLU()
            )
          )
          (5): RDB_Conv(
            (conv): Sequential(
              (0): Conv2d(224, 32, kernel_size=(3, 3), stride=(1, 1), padding=(1, 1))
              (1): ReLU()
            )
          )
          (6): RDB_Conv(
            (conv): Sequential(
              (0): Conv2d(256, 32, kernel_size=(3, 3), stride=(1, 1), padding=(1, 1))
              (1): ReLU()
            )
          )
          (7): RDB_Conv(
            (conv): Sequential(
              (0): Conv2d(288, 32, kernel_size=(3, 3), stride=(1, 1), padding=(1, 1))
              (1): ReLU()
            )
          )
        )
        (LFF): Conv2d(320, 64, kernel_size=(1, 1), stride=(1, 1))
      )
      (3): RDB(
        (convs): Sequential(
          (0): RDB_Conv(
            (conv): Sequential(
              (0): Conv2d(64, 32, kernel_size=(3, 3), stride=(1, 1), padding=(1, 1))
              (1): ReLU()
            )
          )
          (1): RDB_Conv(
            (conv): Sequential(
              (0): Conv2d(96, 32, kernel_size=(3, 3), stride=(1, 1), padding=(1, 1))
              (1): ReLU()
            )
          )
          (2): RDB_Conv(
            (conv): Sequential(
              (0): Conv2d(128, 32, kernel_size=(3, 3), stride=(1, 1), padding=(1, 1))
              (1): ReLU()
            )
          )
          (3): RDB_Conv(
            (conv): Sequential(
              (0): Conv2d(160, 32, kernel_size=(3, 3), stride=(1, 1), padding=(1, 1))
              (1): ReLU()
            )
          )
          (4): RDB_Conv(
            (conv): Sequential(
              (0): Conv2d(192, 32, kernel_size=(3, 3), stride=(1, 1), padding=(1, 1))
              (1): ReLU()
            )
          )
          (5): RDB_Conv(
            (conv): Sequential(
              (0): Conv2d(224, 32, kernel_size=(3, 3), stride=(1, 1), padding=(1, 1))
              (1): ReLU()
            )
          )
          (6): RDB_Conv(
            (conv): Sequential(
              (0): Conv2d(256, 32, kernel_size=(3, 3), stride=(1, 1), padding=(1, 1))
              (1): ReLU()
            )
          )
          (7): RDB_Conv(
            (conv): Sequential(
              (0): Conv2d(288, 32, kernel_size=(3, 3), stride=(1, 1), padding=(1, 1))
              (1): ReLU()
            )
          )
        )
        (LFF): Conv2d(320, 64, kernel_size=(1, 1), stride=(1, 1))
      )
      (4): RDB(
        (convs): Sequential(
          (0): RDB_Conv(
            (conv): Sequential(
              (0): Conv2d(64, 32, kernel_size=(3, 3), stride=(1, 1), padding=(1, 1))
              (1): ReLU()
            )
          )
          (1): RDB_Conv(
            (conv): Sequential(
              (0): Conv2d(96, 32, kernel_size=(3, 3), stride=(1, 1), padding=(1, 1))
              (1): ReLU()
            )
          )
          (2): RDB_Conv(
            (conv): Sequential(
              (0): Conv2d(128, 32, kernel_size=(3, 3), stride=(1, 1), padding=(1, 1))
              (1): ReLU()
            )
          )
          (3): RDB_Conv(
            (conv): Sequential(
              (0): Conv2d(160, 32, kernel_size=(3, 3), stride=(1, 1), padding=(1, 1))
              (1): ReLU()
            )
          )
          (4): RDB_Conv(
            (conv): Sequential(
              (0): Conv2d(192, 32, kernel_size=(3, 3), stride=(1, 1), padding=(1, 1))
              (1): ReLU()
            )
          )
          (5): RDB_Conv(
            (conv): Sequential(
              (0): Conv2d(224, 32, kernel_size=(3, 3), stride=(1, 1), padding=(1, 1))
              (1): ReLU()
            )
          )
          (6): RDB_Conv(
            (conv): Sequential(
              (0): Conv2d(256, 32, kernel_size=(3, 3), stride=(1, 1), padding=(1, 1))
              (1): ReLU()
            )
          )
          (7): RDB_Conv(
            (conv): Sequential(
              (0): Conv2d(288, 32, kernel_size=(3, 3), stride=(1, 1), padding=(1, 1))
              (1): ReLU()
            )
          )
        )
        (LFF): Conv2d(320, 64, kernel_size=(1, 1), stride=(1, 1))
      )
      (5): RDB(
        (convs): Sequential(
          (0): RDB_Conv(
            (conv): Sequential(
              (0): Conv2d(64, 32, kernel_size=(3, 3), stride=(1, 1), padding=(1, 1))
              (1): ReLU()
            )
          )
          (1): RDB_Conv(
            (conv): Sequential(
              (0): Conv2d(96, 32, kernel_size=(3, 3), stride=(1, 1), padding=(1, 1))
              (1): ReLU()
            )
          )
          (2): RDB_Conv(
            (conv): Sequential(
              (0): Conv2d(128, 32, kernel_size=(3, 3), stride=(1, 1), padding=(1, 1))
              (1): ReLU()
            )
          )
          (3): RDB_Conv(
            (conv): Sequential(
              (0): Conv2d(160, 32, kernel_size=(3, 3), stride=(1, 1), padding=(1, 1))
              (1): ReLU()
            )
          )
          (4): RDB_Conv(
            (conv): Sequential(
              (0): Conv2d(192, 32, kernel_size=(3, 3), stride=(1, 1), padding=(1, 1))
              (1): ReLU()
            )
          )
          (5): RDB_Conv(
            (conv): Sequential(
              (0): Conv2d(224, 32, kernel_size=(3, 3), stride=(1, 1), padding=(1, 1))
              (1): ReLU()
            )
          )
          (6): RDB_Conv(
            (conv): Sequential(
              (0): Conv2d(256, 32, kernel_size=(3, 3), stride=(1, 1), padding=(1, 1))
              (1): ReLU()
            )
          )
          (7): RDB_Conv(
            (conv): Sequential(
              (0): Conv2d(288, 32, kernel_size=(3, 3), stride=(1, 1), padding=(1, 1))
              (1): ReLU()
            )
          )
        )
        (LFF): Conv2d(320, 64, kernel_size=(1, 1), stride=(1, 1))
      )
    )
    (GFF): Sequential(
      (0): Conv2d(384, 64, kernel_size=(1, 1), stride=(1, 1))
      (1): Conv2d(64, 64, kernel_size=(3, 3), stride=(1, 1), padding=(1, 1))
    )
    (GW): GenWeights(
      (meta_block): Sequential(
        (0): Conv2d(1, 32, kernel_size=(3, 3), stride=(1, 1), padding=(1, 1))
        (1): ReLU(inplace=True)
        (2): Conv2d(32, 64, kernel_size=(3, 3), stride=(1, 1), padding=(1, 1))
        (3): ReLU(inplace=True)
        (4): Conv2d(64, 64, kernel_size=(3, 3), stride=(1, 1), padding=(1, 1))
        (5): ReLU(inplace=True)
        (6): Conv2d(64, 64, kernel_size=(3, 3), stride=(1, 1), padding=(1, 1))
        (7): ReLU(inplace=True)
        (8): Conv2d(64, 64, kernel_size=(3, 3), stride=(1, 1), padding=(1, 1))
      )
    )
    (RFN): FUSE_RDN(
      (SFENet1): Conv2d(2, 64, kernel_size=(3, 3), stride=(1, 1), padding=(1, 1))
      (SFENet2): Conv2d(64, 64, kernel_size=(3, 3), stride=(1, 1), padding=(1, 1))
      (RDBs): ModuleList(
        (0): RDB(
          (convs): Sequential(
            (0): RDB_Conv(
              (conv): Sequential(
                (0): Conv2d(64, 12, kernel_size=(3, 3), stride=(1, 1), padding=(1, 1))
                (1): ReLU()
              )
            )
            (1): RDB_Conv(
              (conv): Sequential(
                (0): Conv2d(76, 12, kernel_size=(3, 3), stride=(1, 1), padding=(1, 1))
                (1): ReLU()
              )
            )
            (2): RDB_Conv(
              (conv): Sequential(
                (0): Conv2d(88, 12, kernel_size=(3, 3), stride=(1, 1), padding=(1, 1))
                (1): ReLU()
              )
            )
            (3): RDB_Conv(
              (conv): Sequential(
                (0): Conv2d(100, 12, kernel_size=(3, 3), stride=(1, 1), padding=(1, 1))
                (1): ReLU()
              )
            )
            (4): RDB_Conv(
              (conv): Sequential(
                (0): Conv2d(112, 12, kernel_size=(3, 3), stride=(1, 1), padding=(1, 1))
                (1): ReLU()
              )
            )
            (5): RDB_Conv(
              (conv): Sequential(
                (0): Conv2d(124, 12, kernel_size=(3, 3), stride=(1, 1), padding=(1, 1))
                (1): ReLU()
              )
            )
          )
          (LFF): Conv2d(136, 64, kernel_size=(1, 1), stride=(1, 1))
        )
        (1): RDB(
          (convs): Sequential(
            (0): RDB_Conv(
              (conv): Sequential(
                (0): Conv2d(64, 12, kernel_size=(3, 3), stride=(1, 1), padding=(1, 1))
                (1): ReLU()
              )
            )
            (1): RDB_Conv(
              (conv): Sequential(
                (0): Conv2d(76, 12, kernel_size=(3, 3), stride=(1, 1), padding=(1, 1))
                (1): ReLU()
              )
            )
            (2): RDB_Conv(
              (conv): Sequential(
                (0): Conv2d(88, 12, kernel_size=(3, 3), stride=(1, 1), padding=(1, 1))
                (1): ReLU()
              )
            )
            (3): RDB_Conv(
              (conv): Sequential(
                (0): Conv2d(100, 12, kernel_size=(3, 3), stride=(1, 1), padding=(1, 1))
                (1): ReLU()
              )
            )
            (4): RDB_Conv(
              (conv): Sequential(
                (0): Conv2d(112, 12, kernel_size=(3, 3), stride=(1, 1), padding=(1, 1))
                (1): ReLU()
              )
            )
            (5): RDB_Conv(
              (conv): Sequential(
                (0): Conv2d(124, 12, kernel_size=(3, 3), stride=(1, 1), padding=(1, 1))
                (1): ReLU()
              )
            )
          )
          (LFF): Conv2d(136, 64, kernel_size=(1, 1), stride=(1, 1))
        )
        (2): RDB(
          (convs): Sequential(
            (0): RDB_Conv(
              (conv): Sequential(
                (0): Conv2d(64, 12, kernel_size=(3, 3), stride=(1, 1), padding=(1, 1))
                (1): ReLU()
              )
            )
            (1): RDB_Conv(
              (conv): Sequential(
                (0): Conv2d(76, 12, kernel_size=(3, 3), stride=(1, 1), padding=(1, 1))
                (1): ReLU()
              )
            )
            (2): RDB_Conv(
              (conv): Sequential(
                (0): Conv2d(88, 12, kernel_size=(3, 3), stride=(1, 1), padding=(1, 1))
                (1): ReLU()
              )
            )
            (3): RDB_Conv(
              (conv): Sequential(
                (0): Conv2d(100, 12, kernel_size=(3, 3), stride=(1, 1), padding=(1, 1))
                (1): ReLU()
              )
            )
            (4): RDB_Conv(
              (conv): Sequential(
                (0): Conv2d(112, 12, kernel_size=(3, 3), stride=(1, 1), padding=(1, 1))
                (1): ReLU()
              )
            )
            (5): RDB_Conv(
              (conv): Sequential(
                (0): Conv2d(124, 12, kernel_size=(3, 3), stride=(1, 1), padding=(1, 1))
                (1): ReLU()
              )
            )
          )
          (LFF): Conv2d(136, 64, kernel_size=(1, 1), stride=(1, 1))
        )
        (3): RDB(
          (convs): Sequential(
            (0): RDB_Conv(
              (conv): Sequential(
                (0): Conv2d(64, 12, kernel_size=(3, 3), stride=(1, 1), padding=(1, 1))
                (1): ReLU()
              )
            )
            (1): RDB_Conv(
              (conv): Sequential(
                (0): Conv2d(76, 12, kernel_size=(3, 3), stride=(1, 1), padding=(1, 1))
                (1): ReLU()
              )
            )
            (2): RDB_Conv(
              (conv): Sequential(
                (0): Conv2d(88, 12, kernel_size=(3, 3), stride=(1, 1), padding=(1, 1))
                (1): ReLU()
              )
            )
            (3): RDB_Conv(
              (conv): Sequential(
                (0): Conv2d(100, 12, kernel_size=(3, 3), stride=(1, 1), padding=(1, 1))
                (1): ReLU()
              )
            )
            (4): RDB_Conv(
              (conv): Sequential(
                (0): Conv2d(112, 12, kernel_size=(3, 3), stride=(1, 1), padding=(1, 1))
                (1): ReLU()
              )
            )
            (5): RDB_Conv(
              (conv): Sequential(
                (0): Conv2d(124, 12, kernel_size=(3, 3), stride=(1, 1), padding=(1, 1))
                (1): ReLU()
              )
            )
          )
          (LFF): Conv2d(136, 64, kernel_size=(1, 1), stride=(1, 1))
        )
      )
      (GFF): Sequential(
        (0): Conv2d(256, 64, kernel_size=(1, 1), stride=(1, 1))
        (1): Conv2d(64, 64, kernel_size=(3, 3), stride=(1, 1), padding=(1, 1))
      )
      (UPNet): Sequential(
        (0): Conv2d(64, 1, kernel_size=(3, 3), stride=(1, 1), padding=(1, 1))
      )
    )
  )
)DataParallel(
  (module): MSR_RDN(
    (SFENet1): Conv2d(3, 64, kernel_size=(3, 3), stride=(1, 1), padding=(1, 1))
    (SFENet2): Conv2d(64, 64, kernel_size=(3, 3), stride=(1, 1), padding=(1, 1))
    (RDBs): ModuleList(
      (0): RDB(
        (convs): Sequential(
          (0): RDB_Conv(
            (conv): Sequential(
              (0): Conv2d(64, 32, kernel_size=(3, 3), stride=(1, 1), padding=(1, 1))
              (1): ReLU()
            )
          )
          (1): RDB_Conv(
            (conv): Sequential(
              (0): Conv2d(96, 32, kernel_size=(3, 3), stride=(1, 1), padding=(1, 1))
              (1): ReLU()
            )
          )
          (2): RDB_Conv(
            (conv): Sequential(
              (0): Conv2d(128, 32, kernel_size=(3, 3), stride=(1, 1), padding=(1, 1))
              (1): ReLU()
            )
          )
          (3): RDB_Conv(
            (conv): Sequential(
              (0): Conv2d(160, 32, kernel_size=(3, 3), stride=(1, 1), padding=(1, 1))
              (1): ReLU()
            )
          )
          (4): RDB_Conv(
            (conv): Sequential(
              (0): Conv2d(192, 32, kernel_size=(3, 3), stride=(1, 1), padding=(1, 1))
              (1): ReLU()
            )
          )
          (5): RDB_Conv(
            (conv): Sequential(
              (0): Conv2d(224, 32, kernel_size=(3, 3), stride=(1, 1), padding=(1, 1))
              (1): ReLU()
            )
          )
          (6): RDB_Conv(
            (conv): Sequential(
              (0): Conv2d(256, 32, kernel_size=(3, 3), stride=(1, 1), padding=(1, 1))
              (1): ReLU()
            )
          )
          (7): RDB_Conv(
            (conv): Sequential(
              (0): Conv2d(288, 32, kernel_size=(3, 3), stride=(1, 1), padding=(1, 1))
              (1): ReLU()
            )
          )
        )
        (LFF): Conv2d(320, 64, kernel_size=(1, 1), stride=(1, 1))
      )
      (1): RDB(
        (convs): Sequential(
          (0): RDB_Conv(
            (conv): Sequential(
              (0): Conv2d(64, 32, kernel_size=(3, 3), stride=(1, 1), padding=(1, 1))
              (1): ReLU()
            )
          )
          (1): RDB_Conv(
            (conv): Sequential(
              (0): Conv2d(96, 32, kernel_size=(3, 3), stride=(1, 1), padding=(1, 1))
              (1): ReLU()
            )
          )
          (2): RDB_Conv(
            (conv): Sequential(
              (0): Conv2d(128, 32, kernel_size=(3, 3), stride=(1, 1), padding=(1, 1))
              (1): ReLU()
            )
          )
          (3): RDB_Conv(
            (conv): Sequential(
              (0): Conv2d(160, 32, kernel_size=(3, 3), stride=(1, 1), padding=(1, 1))
              (1): ReLU()
            )
          )
          (4): RDB_Conv(
            (conv): Sequential(
              (0): Conv2d(192, 32, kernel_size=(3, 3), stride=(1, 1), padding=(1, 1))
              (1): ReLU()
            )
          )
          (5): RDB_Conv(
            (conv): Sequential(
              (0): Conv2d(224, 32, kernel_size=(3, 3), stride=(1, 1), padding=(1, 1))
              (1): ReLU()
            )
          )
          (6): RDB_Conv(
            (conv): Sequential(
              (0): Conv2d(256, 32, kernel_size=(3, 3), stride=(1, 1), padding=(1, 1))
              (1): ReLU()
            )
          )
          (7): RDB_Conv(
            (conv): Sequential(
              (0): Conv2d(288, 32, kernel_size=(3, 3), stride=(1, 1), padding=(1, 1))
              (1): ReLU()
            )
          )
        )
        (LFF): Conv2d(320, 64, kernel_size=(1, 1), stride=(1, 1))
      )
      (2): RDB(
        (convs): Sequential(
          (0): RDB_Conv(
            (conv): Sequential(
              (0): Conv2d(64, 32, kernel_size=(3, 3), stride=(1, 1), padding=(1, 1))
              (1): ReLU()
            )
          )
          (1): RDB_Conv(
            (conv): Sequential(
              (0): Conv2d(96, 32, kernel_size=(3, 3), stride=(1, 1), padding=(1, 1))
              (1): ReLU()
            )
          )
          (2): RDB_Conv(
            (conv): Sequential(
              (0): Conv2d(128, 32, kernel_size=(3, 3), stride=(1, 1), padding=(1, 1))
              (1): ReLU()
            )
          )
          (3): RDB_Conv(
            (conv): Sequential(
              (0): Conv2d(160, 32, kernel_size=(3, 3), stride=(1, 1), padding=(1, 1))
              (1): ReLU()
            )
          )
          (4): RDB_Conv(
            (conv): Sequential(
              (0): Conv2d(192, 32, kernel_size=(3, 3), stride=(1, 1), padding=(1, 1))
              (1): ReLU()
            )
          )
          (5): RDB_Conv(
            (conv): Sequential(
              (0): Conv2d(224, 32, kernel_size=(3, 3), stride=(1, 1), padding=(1, 1))
              (1): ReLU()
            )
          )
          (6): RDB_Conv(
            (conv): Sequential(
              (0): Conv2d(256, 32, kernel_size=(3, 3), stride=(1, 1), padding=(1, 1))
              (1): ReLU()
            )
          )
          (7): RDB_Conv(
            (conv): Sequential(
              (0): Conv2d(288, 32, kernel_size=(3, 3), stride=(1, 1), padding=(1, 1))
              (1): ReLU()
            )
          )
        )
        (LFF): Conv2d(320, 64, kernel_size=(1, 1), stride=(1, 1))
      )
      (3): RDB(
        (convs): Sequential(
          (0): RDB_Conv(
            (conv): Sequential(
              (0): Conv2d(64, 32, kernel_size=(3, 3), stride=(1, 1), padding=(1, 1))
              (1): ReLU()
            )
          )
          (1): RDB_Conv(
            (conv): Sequential(
              (0): Conv2d(96, 32, kernel_size=(3, 3), stride=(1, 1), padding=(1, 1))
              (1): ReLU()
            )
          )
          (2): RDB_Conv(
            (conv): Sequential(
              (0): Conv2d(128, 32, kernel_size=(3, 3), stride=(1, 1), padding=(1, 1))
              (1): ReLU()
            )
          )
          (3): RDB_Conv(
            (conv): Sequential(
              (0): Conv2d(160, 32, kernel_size=(3, 3), stride=(1, 1), padding=(1, 1))
              (1): ReLU()
            )
          )
          (4): RDB_Conv(
            (conv): Sequential(
              (0): Conv2d(192, 32, kernel_size=(3, 3), stride=(1, 1), padding=(1, 1))
              (1): ReLU()
            )
          )
          (5): RDB_Conv(
            (conv): Sequential(
              (0): Conv2d(224, 32, kernel_size=(3, 3), stride=(1, 1), padding=(1, 1))
              (1): ReLU()
            )
          )
          (6): RDB_Conv(
            (conv): Sequential(
              (0): Conv2d(256, 32, kernel_size=(3, 3), stride=(1, 1), padding=(1, 1))
              (1): ReLU()
            )
          )
          (7): RDB_Conv(
            (conv): Sequential(
              (0): Conv2d(288, 32, kernel_size=(3, 3), stride=(1, 1), padding=(1, 1))
              (1): ReLU()
            )
          )
        )
        (LFF): Conv2d(320, 64, kernel_size=(1, 1), stride=(1, 1))
      )
      (4): RDB(
        (convs): Sequential(
          (0): RDB_Conv(
            (conv): Sequential(
              (0): Conv2d(64, 32, kernel_size=(3, 3), stride=(1, 1), padding=(1, 1))
              (1): ReLU()
            )
          )
          (1): RDB_Conv(
            (conv): Sequential(
              (0): Conv2d(96, 32, kernel_size=(3, 3), stride=(1, 1), padding=(1, 1))
              (1): ReLU()
            )
          )
          (2): RDB_Conv(
            (conv): Sequential(
              (0): Conv2d(128, 32, kernel_size=(3, 3), stride=(1, 1), padding=(1, 1))
              (1): ReLU()
            )
          )
          (3): RDB_Conv(
            (conv): Sequential(
              (0): Conv2d(160, 32, kernel_size=(3, 3), stride=(1, 1), padding=(1, 1))
              (1): ReLU()
            )
          )
          (4): RDB_Conv(
            (conv): Sequential(
              (0): Conv2d(192, 32, kernel_size=(3, 3), stride=(1, 1), padding=(1, 1))
              (1): ReLU()
            )
          )
          (5): RDB_Conv(
            (conv): Sequential(
              (0): Conv2d(224, 32, kernel_size=(3, 3), stride=(1, 1), padding=(1, 1))
              (1): ReLU()
            )
          )
          (6): RDB_Conv(
            (conv): Sequential(
              (0): Conv2d(256, 32, kernel_size=(3, 3), stride=(1, 1), padding=(1, 1))
              (1): ReLU()
            )
          )
          (7): RDB_Conv(
            (conv): Sequential(
              (0): Conv2d(288, 32, kernel_size=(3, 3), stride=(1, 1), padding=(1, 1))
              (1): ReLU()
            )
          )
        )
        (LFF): Conv2d(320, 64, kernel_size=(1, 1), stride=(1, 1))
      )
      (5): RDB(
        (convs): Sequential(
          (0): RDB_Conv(
            (conv): Sequential(
              (0): Conv2d(64, 32, kernel_size=(3, 3), stride=(1, 1), padding=(1, 1))
              (1): ReLU()
            )
          )
          (1): RDB_Conv(
            (conv): Sequential(
              (0): Conv2d(96, 32, kernel_size=(3, 3), stride=(1, 1), padding=(1, 1))
              (1): ReLU()
            )
          )
          (2): RDB_Conv(
            (conv): Sequential(
              (0): Conv2d(128, 32, kernel_size=(3, 3), stride=(1, 1), padding=(1, 1))
              (1): ReLU()
            )
          )
          (3): RDB_Conv(
            (conv): Sequential(
              (0): Conv2d(160, 32, kernel_size=(3, 3), stride=(1, 1), padding=(1, 1))
              (1): ReLU()
            )
          )
          (4): RDB_Conv(
            (conv): Sequential(
              (0): Conv2d(192, 32, kernel_size=(3, 3), stride=(1, 1), padding=(1, 1))
              (1): ReLU()
            )
          )
          (5): RDB_Conv(
            (conv): Sequential(
              (0): Conv2d(224, 32, kernel_size=(3, 3), stride=(1, 1), padding=(1, 1))
              (1): ReLU()
            )
          )
          (6): RDB_Conv(
            (conv): Sequential(
              (0): Conv2d(256, 32, kernel_size=(3, 3), stride=(1, 1), padding=(1, 1))
              (1): ReLU()
            )
          )
          (7): RDB_Conv(
            (conv): Sequential(
              (0): Conv2d(288, 32, kernel_size=(3, 3), stride=(1, 1), padding=(1, 1))
              (1): ReLU()
            )
          )
        )
        (LFF): Conv2d(320, 64, kernel_size=(1, 1), stride=(1, 1))
      )
    )
    (GFF): Sequential(
      (0): Conv2d(384, 64, kernel_size=(1, 1), stride=(1, 1))
      (1): Conv2d(64, 64, kernel_size=(3, 3), stride=(1, 1), padding=(1, 1))
    )
    (GW): GenWeights(
      (meta_block): Sequential(
        (0): Conv2d(1, 32, kernel_size=(3, 3), stride=(1, 1), padding=(1, 1))
        (1): ReLU(inplace=True)
        (2): Conv2d(32, 64, kernel_size=(3, 3), stride=(1, 1), padding=(1, 1))
        (3): ReLU(inplace=True)
        (4): Conv2d(64, 64, kernel_size=(3, 3), stride=(1, 1), padding=(1, 1))
        (5): ReLU(inplace=True)
        (6): Conv2d(64, 64, kernel_size=(3, 3), stride=(1, 1), padding=(1, 1))
        (7): ReLU(inplace=True)
        (8): Conv2d(64, 64, kernel_size=(3, 3), stride=(1, 1), padding=(1, 1))
      )
    )
    (RFN): FUSE_RDN(
      (SFENet1): Conv2d(2, 64, kernel_size=(3, 3), stride=(1, 1), padding=(1, 1))
      (SFENet2): Conv2d(64, 64, kernel_size=(3, 3), stride=(1, 1), padding=(1, 1))
      (RDBs): ModuleList(
        (0): RDB(
          (convs): Sequential(
            (0): RDB_Conv(
              (conv): Sequential(
                (0): Conv2d(64, 12, kernel_size=(3, 3), stride=(1, 1), padding=(1, 1))
                (1): ReLU()
              )
            )
            (1): RDB_Conv(
              (conv): Sequential(
                (0): Conv2d(76, 12, kernel_size=(3, 3), stride=(1, 1), padding=(1, 1))
                (1): ReLU()
              )
            )
            (2): RDB_Conv(
              (conv): Sequential(
                (0): Conv2d(88, 12, kernel_size=(3, 3), stride=(1, 1), padding=(1, 1))
                (1): ReLU()
              )
            )
            (3): RDB_Conv(
              (conv): Sequential(
                (0): Conv2d(100, 12, kernel_size=(3, 3), stride=(1, 1), padding=(1, 1))
                (1): ReLU()
              )
            )
            (4): RDB_Conv(
              (conv): Sequential(
                (0): Conv2d(112, 12, kernel_size=(3, 3), stride=(1, 1), padding=(1, 1))
                (1): ReLU()
              )
            )
            (5): RDB_Conv(
              (conv): Sequential(
                (0): Conv2d(124, 12, kernel_size=(3, 3), stride=(1, 1), padding=(1, 1))
                (1): ReLU()
              )
            )
          )
          (LFF): Conv2d(136, 64, kernel_size=(1, 1), stride=(1, 1))
        )
        (1): RDB(
          (convs): Sequential(
            (0): RDB_Conv(
              (conv): Sequential(
                (0): Conv2d(64, 12, kernel_size=(3, 3), stride=(1, 1), padding=(1, 1))
                (1): ReLU()
              )
            )
            (1): RDB_Conv(
              (conv): Sequential(
                (0): Conv2d(76, 12, kernel_size=(3, 3), stride=(1, 1), padding=(1, 1))
                (1): ReLU()
              )
            )
            (2): RDB_Conv(
              (conv): Sequential(
                (0): Conv2d(88, 12, kernel_size=(3, 3), stride=(1, 1), padding=(1, 1))
                (1): ReLU()
              )
            )
            (3): RDB_Conv(
              (conv): Sequential(
                (0): Conv2d(100, 12, kernel_size=(3, 3), stride=(1, 1), padding=(1, 1))
                (1): ReLU()
              )
            )
            (4): RDB_Conv(
              (conv): Sequential(
                (0): Conv2d(112, 12, kernel_size=(3, 3), stride=(1, 1), padding=(1, 1))
                (1): ReLU()
              )
            )
            (5): RDB_Conv(
              (conv): Sequential(
                (0): Conv2d(124, 12, kernel_size=(3, 3), stride=(1, 1), padding=(1, 1))
                (1): ReLU()
              )
            )
          )
          (LFF): Conv2d(136, 64, kernel_size=(1, 1), stride=(1, 1))
        )
        (2): RDB(
          (convs): Sequential(
            (0): RDB_Conv(
              (conv): Sequential(
                (0): Conv2d(64, 12, kernel_size=(3, 3), stride=(1, 1), padding=(1, 1))
                (1): ReLU()
              )
            )
            (1): RDB_Conv(
              (conv): Sequential(
                (0): Conv2d(76, 12, kernel_size=(3, 3), stride=(1, 1), padding=(1, 1))
                (1): ReLU()
              )
            )
            (2): RDB_Conv(
              (conv): Sequential(
                (0): Conv2d(88, 12, kernel_size=(3, 3), stride=(1, 1), padding=(1, 1))
                (1): ReLU()
              )
            )
            (3): RDB_Conv(
              (conv): Sequential(
                (0): Conv2d(100, 12, kernel_size=(3, 3), stride=(1, 1), padding=(1, 1))
                (1): ReLU()
              )
            )
            (4): RDB_Conv(
              (conv): Sequential(
                (0): Conv2d(112, 12, kernel_size=(3, 3), stride=(1, 1), padding=(1, 1))
                (1): ReLU()
              )
            )
            (5): RDB_Conv(
              (conv): Sequential(
                (0): Conv2d(124, 12, kernel_size=(3, 3), stride=(1, 1), padding=(1, 1))
                (1): ReLU()
              )
            )
          )
          (LFF): Conv2d(136, 64, kernel_size=(1, 1), stride=(1, 1))
        )
        (3): RDB(
          (convs): Sequential(
            (0): RDB_Conv(
              (conv): Sequential(
                (0): Conv2d(64, 12, kernel_size=(3, 3), stride=(1, 1), padding=(1, 1))
                (1): ReLU()
              )
            )
            (1): RDB_Conv(
              (conv): Sequential(
                (0): Conv2d(76, 12, kernel_size=(3, 3), stride=(1, 1), padding=(1, 1))
                (1): ReLU()
              )
            )
            (2): RDB_Conv(
              (conv): Sequential(
                (0): Conv2d(88, 12, kernel_size=(3, 3), stride=(1, 1), padding=(1, 1))
                (1): ReLU()
              )
            )
            (3): RDB_Conv(
              (conv): Sequential(
                (0): Conv2d(100, 12, kernel_size=(3, 3), stride=(1, 1), padding=(1, 1))
                (1): ReLU()
              )
            )
            (4): RDB_Conv(
              (conv): Sequential(
                (0): Conv2d(112, 12, kernel_size=(3, 3), stride=(1, 1), padding=(1, 1))
                (1): ReLU()
              )
            )
            (5): RDB_Conv(
              (conv): Sequential(
                (0): Conv2d(124, 12, kernel_size=(3, 3), stride=(1, 1), padding=(1, 1))
                (1): ReLU()
              )
            )
          )
          (LFF): Conv2d(136, 64, kernel_size=(1, 1), stride=(1, 1))
        )
      )
      (GFF): Sequential(
        (0): Conv2d(256, 64, kernel_size=(1, 1), stride=(1, 1))
        (1): Conv2d(64, 64, kernel_size=(3, 3), stride=(1, 1), padding=(1, 1))
      )
      (UPNet): Sequential(
        (0): Conv2d(64, 1, kernel_size=(3, 3), stride=(1, 1), padding=(1, 1))
      )
    )
  )
)DataParallel(
  (module): MSR_RDN(
    (SFENet1): Conv2d(3, 64, kernel_size=(3, 3), stride=(1, 1), padding=(1, 1))
    (SFENet2): Conv2d(64, 64, kernel_size=(3, 3), stride=(1, 1), padding=(1, 1))
    (RDBs): ModuleList(
      (0): RDB(
        (convs): Sequential(
          (0): RDB_Conv(
            (conv): Sequential(
              (0): Conv2d(64, 32, kernel_size=(3, 3), stride=(1, 1), padding=(1, 1))
              (1): ReLU()
            )
          )
          (1): RDB_Conv(
            (conv): Sequential(
              (0): Conv2d(96, 32, kernel_size=(3, 3), stride=(1, 1), padding=(1, 1))
              (1): ReLU()
            )
          )
          (2): RDB_Conv(
            (conv): Sequential(
              (0): Conv2d(128, 32, kernel_size=(3, 3), stride=(1, 1), padding=(1, 1))
              (1): ReLU()
            )
          )
          (3): RDB_Conv(
            (conv): Sequential(
              (0): Conv2d(160, 32, kernel_size=(3, 3), stride=(1, 1), padding=(1, 1))
              (1): ReLU()
            )
          )
          (4): RDB_Conv(
            (conv): Sequential(
              (0): Conv2d(192, 32, kernel_size=(3, 3), stride=(1, 1), padding=(1, 1))
              (1): ReLU()
            )
          )
          (5): RDB_Conv(
            (conv): Sequential(
              (0): Conv2d(224, 32, kernel_size=(3, 3), stride=(1, 1), padding=(1, 1))
              (1): ReLU()
            )
          )
          (6): RDB_Conv(
            (conv): Sequential(
              (0): Conv2d(256, 32, kernel_size=(3, 3), stride=(1, 1), padding=(1, 1))
              (1): ReLU()
            )
          )
          (7): RDB_Conv(
            (conv): Sequential(
              (0): Conv2d(288, 32, kernel_size=(3, 3), stride=(1, 1), padding=(1, 1))
              (1): ReLU()
            )
          )
        )
        (LFF): Conv2d(320, 64, kernel_size=(1, 1), stride=(1, 1))
      )
      (1): RDB(
        (convs): Sequential(
          (0): RDB_Conv(
            (conv): Sequential(
              (0): Conv2d(64, 32, kernel_size=(3, 3), stride=(1, 1), padding=(1, 1))
              (1): ReLU()
            )
          )
          (1): RDB_Conv(
            (conv): Sequential(
              (0): Conv2d(96, 32, kernel_size=(3, 3), stride=(1, 1), padding=(1, 1))
              (1): ReLU()
            )
          )
          (2): RDB_Conv(
            (conv): Sequential(
              (0): Conv2d(128, 32, kernel_size=(3, 3), stride=(1, 1), padding=(1, 1))
              (1): ReLU()
            )
          )
          (3): RDB_Conv(
            (conv): Sequential(
              (0): Conv2d(160, 32, kernel_size=(3, 3), stride=(1, 1), padding=(1, 1))
              (1): ReLU()
            )
          )
          (4): RDB_Conv(
            (conv): Sequential(
              (0): Conv2d(192, 32, kernel_size=(3, 3), stride=(1, 1), padding=(1, 1))
              (1): ReLU()
            )
          )
          (5): RDB_Conv(
            (conv): Sequential(
              (0): Conv2d(224, 32, kernel_size=(3, 3), stride=(1, 1), padding=(1, 1))
              (1): ReLU()
            )
          )
          (6): RDB_Conv(
            (conv): Sequential(
              (0): Conv2d(256, 32, kernel_size=(3, 3), stride=(1, 1), padding=(1, 1))
              (1): ReLU()
            )
          )
          (7): RDB_Conv(
            (conv): Sequential(
              (0): Conv2d(288, 32, kernel_size=(3, 3), stride=(1, 1), padding=(1, 1))
              (1): ReLU()
            )
          )
        )
        (LFF): Conv2d(320, 64, kernel_size=(1, 1), stride=(1, 1))
      )
      (2): RDB(
        (convs): Sequential(
          (0): RDB_Conv(
            (conv): Sequential(
              (0): Conv2d(64, 32, kernel_size=(3, 3), stride=(1, 1), padding=(1, 1))
              (1): ReLU()
            )
          )
          (1): RDB_Conv(
            (conv): Sequential(
              (0): Conv2d(96, 32, kernel_size=(3, 3), stride=(1, 1), padding=(1, 1))
              (1): ReLU()
            )
          )
          (2): RDB_Conv(
            (conv): Sequential(
              (0): Conv2d(128, 32, kernel_size=(3, 3), stride=(1, 1), padding=(1, 1))
              (1): ReLU()
            )
          )
          (3): RDB_Conv(
            (conv): Sequential(
              (0): Conv2d(160, 32, kernel_size=(3, 3), stride=(1, 1), padding=(1, 1))
              (1): ReLU()
            )
          )
          (4): RDB_Conv(
            (conv): Sequential(
              (0): Conv2d(192, 32, kernel_size=(3, 3), stride=(1, 1), padding=(1, 1))
              (1): ReLU()
            )
          )
          (5): RDB_Conv(
            (conv): Sequential(
              (0): Conv2d(224, 32, kernel_size=(3, 3), stride=(1, 1), padding=(1, 1))
              (1): ReLU()
            )
          )
          (6): RDB_Conv(
            (conv): Sequential(
              (0): Conv2d(256, 32, kernel_size=(3, 3), stride=(1, 1), padding=(1, 1))
              (1): ReLU()
            )
          )
          (7): RDB_Conv(
            (conv): Sequential(
              (0): Conv2d(288, 32, kernel_size=(3, 3), stride=(1, 1), padding=(1, 1))
              (1): ReLU()
            )
          )
        )
        (LFF): Conv2d(320, 64, kernel_size=(1, 1), stride=(1, 1))
      )
      (3): RDB(
        (convs): Sequential(
          (0): RDB_Conv(
            (conv): Sequential(
              (0): Conv2d(64, 32, kernel_size=(3, 3), stride=(1, 1), padding=(1, 1))
              (1): ReLU()
            )
          )
          (1): RDB_Conv(
            (conv): Sequential(
              (0): Conv2d(96, 32, kernel_size=(3, 3), stride=(1, 1), padding=(1, 1))
              (1): ReLU()
            )
          )
          (2): RDB_Conv(
            (conv): Sequential(
              (0): Conv2d(128, 32, kernel_size=(3, 3), stride=(1, 1), padding=(1, 1))
              (1): ReLU()
            )
          )
          (3): RDB_Conv(
            (conv): Sequential(
              (0): Conv2d(160, 32, kernel_size=(3, 3), stride=(1, 1), padding=(1, 1))
              (1): ReLU()
            )
          )
          (4): RDB_Conv(
            (conv): Sequential(
              (0): Conv2d(192, 32, kernel_size=(3, 3), stride=(1, 1), padding=(1, 1))
              (1): ReLU()
            )
          )
          (5): RDB_Conv(
            (conv): Sequential(
              (0): Conv2d(224, 32, kernel_size=(3, 3), stride=(1, 1), padding=(1, 1))
              (1): ReLU()
            )
          )
          (6): RDB_Conv(
            (conv): Sequential(
              (0): Conv2d(256, 32, kernel_size=(3, 3), stride=(1, 1), padding=(1, 1))
              (1): ReLU()
            )
          )
          (7): RDB_Conv(
            (conv): Sequential(
              (0): Conv2d(288, 32, kernel_size=(3, 3), stride=(1, 1), padding=(1, 1))
              (1): ReLU()
            )
          )
        )
        (LFF): Conv2d(320, 64, kernel_size=(1, 1), stride=(1, 1))
      )
      (4): RDB(
        (convs): Sequential(
          (0): RDB_Conv(
            (conv): Sequential(
              (0): Conv2d(64, 32, kernel_size=(3, 3), stride=(1, 1), padding=(1, 1))
              (1): ReLU()
            )
          )
          (1): RDB_Conv(
            (conv): Sequential(
              (0): Conv2d(96, 32, kernel_size=(3, 3), stride=(1, 1), padding=(1, 1))
              (1): ReLU()
            )
          )
          (2): RDB_Conv(
            (conv): Sequential(
              (0): Conv2d(128, 32, kernel_size=(3, 3), stride=(1, 1), padding=(1, 1))
              (1): ReLU()
            )
          )
          (3): RDB_Conv(
            (conv): Sequential(
              (0): Conv2d(160, 32, kernel_size=(3, 3), stride=(1, 1), padding=(1, 1))
              (1): ReLU()
            )
          )
          (4): RDB_Conv(
            (conv): Sequential(
              (0): Conv2d(192, 32, kernel_size=(3, 3), stride=(1, 1), padding=(1, 1))
              (1): ReLU()
            )
          )
          (5): RDB_Conv(
            (conv): Sequential(
              (0): Conv2d(224, 32, kernel_size=(3, 3), stride=(1, 1), padding=(1, 1))
              (1): ReLU()
            )
          )
          (6): RDB_Conv(
            (conv): Sequential(
              (0): Conv2d(256, 32, kernel_size=(3, 3), stride=(1, 1), padding=(1, 1))
              (1): ReLU()
            )
          )
          (7): RDB_Conv(
            (conv): Sequential(
              (0): Conv2d(288, 32, kernel_size=(3, 3), stride=(1, 1), padding=(1, 1))
              (1): ReLU()
            )
          )
        )
        (LFF): Conv2d(320, 64, kernel_size=(1, 1), stride=(1, 1))
      )
      (5): RDB(
        (convs): Sequential(
          (0): RDB_Conv(
            (conv): Sequential(
              (0): Conv2d(64, 32, kernel_size=(3, 3), stride=(1, 1), padding=(1, 1))
              (1): ReLU()
            )
          )
          (1): RDB_Conv(
            (conv): Sequential(
              (0): Conv2d(96, 32, kernel_size=(3, 3), stride=(1, 1), padding=(1, 1))
              (1): ReLU()
            )
          )
          (2): RDB_Conv(
            (conv): Sequential(
              (0): Conv2d(128, 32, kernel_size=(3, 3), stride=(1, 1), padding=(1, 1))
              (1): ReLU()
            )
          )
          (3): RDB_Conv(
            (conv): Sequential(
              (0): Conv2d(160, 32, kernel_size=(3, 3), stride=(1, 1), padding=(1, 1))
              (1): ReLU()
            )
          )
          (4): RDB_Conv(
            (conv): Sequential(
              (0): Conv2d(192, 32, kernel_size=(3, 3), stride=(1, 1), padding=(1, 1))
              (1): ReLU()
            )
          )
          (5): RDB_Conv(
            (conv): Sequential(
              (0): Conv2d(224, 32, kernel_size=(3, 3), stride=(1, 1), padding=(1, 1))
              (1): ReLU()
            )
          )
          (6): RDB_Conv(
            (conv): Sequential(
              (0): Conv2d(256, 32, kernel_size=(3, 3), stride=(1, 1), padding=(1, 1))
              (1): ReLU()
            )
          )
          (7): RDB_Conv(
            (conv): Sequential(
              (0): Conv2d(288, 32, kernel_size=(3, 3), stride=(1, 1), padding=(1, 1))
              (1): ReLU()
            )
          )
        )
        (LFF): Conv2d(320, 64, kernel_size=(1, 1), stride=(1, 1))
      )
    )
    (GFF): Sequential(
      (0): Conv2d(384, 64, kernel_size=(1, 1), stride=(1, 1))
      (1): Conv2d(64, 64, kernel_size=(3, 3), stride=(1, 1), padding=(1, 1))
    )
    (GW): GenWeights(
      (meta_block): Sequential(
        (0): Conv2d(1, 32, kernel_size=(3, 3), stride=(1, 1), padding=(1, 1))
        (1): ReLU(inplace=True)
        (2): Conv2d(32, 64, kernel_size=(3, 3), stride=(1, 1), padding=(1, 1))
        (3): ReLU(inplace=True)
        (4): Conv2d(64, 64, kernel_size=(3, 3), stride=(1, 1), padding=(1, 1))
        (5): ReLU(inplace=True)
        (6): Conv2d(64, 64, kernel_size=(3, 3), stride=(1, 1), padding=(1, 1))
        (7): ReLU(inplace=True)
        (8): Conv2d(64, 64, kernel_size=(3, 3), stride=(1, 1), padding=(1, 1))
      )
    )
    (RFN): FUSE_RDN(
      (SFENet1): Conv2d(2, 64, kernel_size=(3, 3), stride=(1, 1), padding=(1, 1))
      (SFENet2): Conv2d(64, 64, kernel_size=(3, 3), stride=(1, 1), padding=(1, 1))
      (RDBs): ModuleList(
        (0): RDB(
          (convs): Sequential(
            (0): RDB_Conv(
              (conv): Sequential(
                (0): Conv2d(64, 12, kernel_size=(3, 3), stride=(1, 1), padding=(1, 1))
                (1): ReLU()
              )
            )
            (1): RDB_Conv(
              (conv): Sequential(
                (0): Conv2d(76, 12, kernel_size=(3, 3), stride=(1, 1), padding=(1, 1))
                (1): ReLU()
              )
            )
            (2): RDB_Conv(
              (conv): Sequential(
                (0): Conv2d(88, 12, kernel_size=(3, 3), stride=(1, 1), padding=(1, 1))
                (1): ReLU()
              )
            )
            (3): RDB_Conv(
              (conv): Sequential(
                (0): Conv2d(100, 12, kernel_size=(3, 3), stride=(1, 1), padding=(1, 1))
                (1): ReLU()
              )
            )
            (4): RDB_Conv(
              (conv): Sequential(
                (0): Conv2d(112, 12, kernel_size=(3, 3), stride=(1, 1), padding=(1, 1))
                (1): ReLU()
              )
            )
            (5): RDB_Conv(
              (conv): Sequential(
                (0): Conv2d(124, 12, kernel_size=(3, 3), stride=(1, 1), padding=(1, 1))
                (1): ReLU()
              )
            )
          )
          (LFF): Conv2d(136, 64, kernel_size=(1, 1), stride=(1, 1))
        )
        (1): RDB(
          (convs): Sequential(
            (0): RDB_Conv(
              (conv): Sequential(
                (0): Conv2d(64, 12, kernel_size=(3, 3), stride=(1, 1), padding=(1, 1))
                (1): ReLU()
              )
            )
            (1): RDB_Conv(
              (conv): Sequential(
                (0): Conv2d(76, 12, kernel_size=(3, 3), stride=(1, 1), padding=(1, 1))
                (1): ReLU()
              )
            )
            (2): RDB_Conv(
              (conv): Sequential(
                (0): Conv2d(88, 12, kernel_size=(3, 3), stride=(1, 1), padding=(1, 1))
                (1): ReLU()
              )
            )
            (3): RDB_Conv(
              (conv): Sequential(
                (0): Conv2d(100, 12, kernel_size=(3, 3), stride=(1, 1), padding=(1, 1))
                (1): ReLU()
              )
            )
            (4): RDB_Conv(
              (conv): Sequential(
                (0): Conv2d(112, 12, kernel_size=(3, 3), stride=(1, 1), padding=(1, 1))
                (1): ReLU()
              )
            )
            (5): RDB_Conv(
              (conv): Sequential(
                (0): Conv2d(124, 12, kernel_size=(3, 3), stride=(1, 1), padding=(1, 1))
                (1): ReLU()
              )
            )
          )
          (LFF): Conv2d(136, 64, kernel_size=(1, 1), stride=(1, 1))
        )
        (2): RDB(
          (convs): Sequential(
            (0): RDB_Conv(
              (conv): Sequential(
                (0): Conv2d(64, 12, kernel_size=(3, 3), stride=(1, 1), padding=(1, 1))
                (1): ReLU()
              )
            )
            (1): RDB_Conv(
              (conv): Sequential(
                (0): Conv2d(76, 12, kernel_size=(3, 3), stride=(1, 1), padding=(1, 1))
                (1): ReLU()
              )
            )
            (2): RDB_Conv(
              (conv): Sequential(
                (0): Conv2d(88, 12, kernel_size=(3, 3), stride=(1, 1), padding=(1, 1))
                (1): ReLU()
              )
            )
            (3): RDB_Conv(
              (conv): Sequential(
                (0): Conv2d(100, 12, kernel_size=(3, 3), stride=(1, 1), padding=(1, 1))
                (1): ReLU()
              )
            )
            (4): RDB_Conv(
              (conv): Sequential(
                (0): Conv2d(112, 12, kernel_size=(3, 3), stride=(1, 1), padding=(1, 1))
                (1): ReLU()
              )
            )
            (5): RDB_Conv(
              (conv): Sequential(
                (0): Conv2d(124, 12, kernel_size=(3, 3), stride=(1, 1), padding=(1, 1))
                (1): ReLU()
              )
            )
          )
          (LFF): Conv2d(136, 64, kernel_size=(1, 1), stride=(1, 1))
        )
        (3): RDB(
          (convs): Sequential(
            (0): RDB_Conv(
              (conv): Sequential(
                (0): Conv2d(64, 12, kernel_size=(3, 3), stride=(1, 1), padding=(1, 1))
                (1): ReLU()
              )
            )
            (1): RDB_Conv(
              (conv): Sequential(
                (0): Conv2d(76, 12, kernel_size=(3, 3), stride=(1, 1), padding=(1, 1))
                (1): ReLU()
              )
            )
            (2): RDB_Conv(
              (conv): Sequential(
                (0): Conv2d(88, 12, kernel_size=(3, 3), stride=(1, 1), padding=(1, 1))
                (1): ReLU()
              )
            )
            (3): RDB_Conv(
              (conv): Sequential(
                (0): Conv2d(100, 12, kernel_size=(3, 3), stride=(1, 1), padding=(1, 1))
                (1): ReLU()
              )
            )
            (4): RDB_Conv(
              (conv): Sequential(
                (0): Conv2d(112, 12, kernel_size=(3, 3), stride=(1, 1), padding=(1, 1))
                (1): ReLU()
              )
            )
            (5): RDB_Conv(
              (conv): Sequential(
                (0): Conv2d(124, 12, kernel_size=(3, 3), stride=(1, 1), padding=(1, 1))
                (1): ReLU()
              )
            )
          )
          (LFF): Conv2d(136, 64, kernel_size=(1, 1), stride=(1, 1))
        )
      )
      (GFF): Sequential(
        (0): Conv2d(256, 64, kernel_size=(1, 1), stride=(1, 1))
        (1): Conv2d(64, 64, kernel_size=(3, 3), stride=(1, 1), padding=(1, 1))
      )
      (UPNet): Sequential(
        (0): Conv2d(64, 1, kernel_size=(3, 3), stride=(1, 1), padding=(1, 1))
      )
    )
  )
)DataParallel(
  (module): MSR_RDN(
    (SFENet1): Conv2d(3, 64, kernel_size=(3, 3), stride=(1, 1), padding=(1, 1))
    (SFENet2): Conv2d(64, 64, kernel_size=(3, 3), stride=(1, 1), padding=(1, 1))
    (RDBs): ModuleList(
      (0): RDB(
        (convs): Sequential(
          (0): RDB_Conv(
            (conv): Sequential(
              (0): Conv2d(64, 32, kernel_size=(3, 3), stride=(1, 1), padding=(1, 1))
              (1): ReLU()
            )
          )
          (1): RDB_Conv(
            (conv): Sequential(
              (0): Conv2d(96, 32, kernel_size=(3, 3), stride=(1, 1), padding=(1, 1))
              (1): ReLU()
            )
          )
          (2): RDB_Conv(
            (conv): Sequential(
              (0): Conv2d(128, 32, kernel_size=(3, 3), stride=(1, 1), padding=(1, 1))
              (1): ReLU()
            )
          )
          (3): RDB_Conv(
            (conv): Sequential(
              (0): Conv2d(160, 32, kernel_size=(3, 3), stride=(1, 1), padding=(1, 1))
              (1): ReLU()
            )
          )
          (4): RDB_Conv(
            (conv): Sequential(
              (0): Conv2d(192, 32, kernel_size=(3, 3), stride=(1, 1), padding=(1, 1))
              (1): ReLU()
            )
          )
          (5): RDB_Conv(
            (conv): Sequential(
              (0): Conv2d(224, 32, kernel_size=(3, 3), stride=(1, 1), padding=(1, 1))
              (1): ReLU()
            )
          )
          (6): RDB_Conv(
            (conv): Sequential(
              (0): Conv2d(256, 32, kernel_size=(3, 3), stride=(1, 1), padding=(1, 1))
              (1): ReLU()
            )
          )
          (7): RDB_Conv(
            (conv): Sequential(
              (0): Conv2d(288, 32, kernel_size=(3, 3), stride=(1, 1), padding=(1, 1))
              (1): ReLU()
            )
          )
        )
        (LFF): Conv2d(320, 64, kernel_size=(1, 1), stride=(1, 1))
      )
      (1): RDB(
        (convs): Sequential(
          (0): RDB_Conv(
            (conv): Sequential(
              (0): Conv2d(64, 32, kernel_size=(3, 3), stride=(1, 1), padding=(1, 1))
              (1): ReLU()
            )
          )
          (1): RDB_Conv(
            (conv): Sequential(
              (0): Conv2d(96, 32, kernel_size=(3, 3), stride=(1, 1), padding=(1, 1))
              (1): ReLU()
            )
          )
          (2): RDB_Conv(
            (conv): Sequential(
              (0): Conv2d(128, 32, kernel_size=(3, 3), stride=(1, 1), padding=(1, 1))
              (1): ReLU()
            )
          )
          (3): RDB_Conv(
            (conv): Sequential(
              (0): Conv2d(160, 32, kernel_size=(3, 3), stride=(1, 1), padding=(1, 1))
              (1): ReLU()
            )
          )
          (4): RDB_Conv(
            (conv): Sequential(
              (0): Conv2d(192, 32, kernel_size=(3, 3), stride=(1, 1), padding=(1, 1))
              (1): ReLU()
            )
          )
          (5): RDB_Conv(
            (conv): Sequential(
              (0): Conv2d(224, 32, kernel_size=(3, 3), stride=(1, 1), padding=(1, 1))
              (1): ReLU()
            )
          )
          (6): RDB_Conv(
            (conv): Sequential(
              (0): Conv2d(256, 32, kernel_size=(3, 3), stride=(1, 1), padding=(1, 1))
              (1): ReLU()
            )
          )
          (7): RDB_Conv(
            (conv): Sequential(
              (0): Conv2d(288, 32, kernel_size=(3, 3), stride=(1, 1), padding=(1, 1))
              (1): ReLU()
            )
          )
        )
        (LFF): Conv2d(320, 64, kernel_size=(1, 1), stride=(1, 1))
      )
      (2): RDB(
        (convs): Sequential(
          (0): RDB_Conv(
            (conv): Sequential(
              (0): Conv2d(64, 32, kernel_size=(3, 3), stride=(1, 1), padding=(1, 1))
              (1): ReLU()
            )
          )
          (1): RDB_Conv(
            (conv): Sequential(
              (0): Conv2d(96, 32, kernel_size=(3, 3), stride=(1, 1), padding=(1, 1))
              (1): ReLU()
            )
          )
          (2): RDB_Conv(
            (conv): Sequential(
              (0): Conv2d(128, 32, kernel_size=(3, 3), stride=(1, 1), padding=(1, 1))
              (1): ReLU()
            )
          )
          (3): RDB_Conv(
            (conv): Sequential(
              (0): Conv2d(160, 32, kernel_size=(3, 3), stride=(1, 1), padding=(1, 1))
              (1): ReLU()
            )
          )
          (4): RDB_Conv(
            (conv): Sequential(
              (0): Conv2d(192, 32, kernel_size=(3, 3), stride=(1, 1), padding=(1, 1))
              (1): ReLU()
            )
          )
          (5): RDB_Conv(
            (conv): Sequential(
              (0): Conv2d(224, 32, kernel_size=(3, 3), stride=(1, 1), padding=(1, 1))
              (1): ReLU()
            )
          )
          (6): RDB_Conv(
            (conv): Sequential(
              (0): Conv2d(256, 32, kernel_size=(3, 3), stride=(1, 1), padding=(1, 1))
              (1): ReLU()
            )
          )
          (7): RDB_Conv(
            (conv): Sequential(
              (0): Conv2d(288, 32, kernel_size=(3, 3), stride=(1, 1), padding=(1, 1))
              (1): ReLU()
            )
          )
        )
        (LFF): Conv2d(320, 64, kernel_size=(1, 1), stride=(1, 1))
      )
      (3): RDB(
        (convs): Sequential(
          (0): RDB_Conv(
            (conv): Sequential(
              (0): Conv2d(64, 32, kernel_size=(3, 3), stride=(1, 1), padding=(1, 1))
              (1): ReLU()
            )
          )
          (1): RDB_Conv(
            (conv): Sequential(
              (0): Conv2d(96, 32, kernel_size=(3, 3), stride=(1, 1), padding=(1, 1))
              (1): ReLU()
            )
          )
          (2): RDB_Conv(
            (conv): Sequential(
              (0): Conv2d(128, 32, kernel_size=(3, 3), stride=(1, 1), padding=(1, 1))
              (1): ReLU()
            )
          )
          (3): RDB_Conv(
            (conv): Sequential(
              (0): Conv2d(160, 32, kernel_size=(3, 3), stride=(1, 1), padding=(1, 1))
              (1): ReLU()
            )
          )
          (4): RDB_Conv(
            (conv): Sequential(
              (0): Conv2d(192, 32, kernel_size=(3, 3), stride=(1, 1), padding=(1, 1))
              (1): ReLU()
            )
          )
          (5): RDB_Conv(
            (conv): Sequential(
              (0): Conv2d(224, 32, kernel_size=(3, 3), stride=(1, 1), padding=(1, 1))
              (1): ReLU()
            )
          )
          (6): RDB_Conv(
            (conv): Sequential(
              (0): Conv2d(256, 32, kernel_size=(3, 3), stride=(1, 1), padding=(1, 1))
              (1): ReLU()
            )
          )
          (7): RDB_Conv(
            (conv): Sequential(
              (0): Conv2d(288, 32, kernel_size=(3, 3), stride=(1, 1), padding=(1, 1))
              (1): ReLU()
            )
          )
        )
        (LFF): Conv2d(320, 64, kernel_size=(1, 1), stride=(1, 1))
      )
      (4): RDB(
        (convs): Sequential(
          (0): RDB_Conv(
            (conv): Sequential(
              (0): Conv2d(64, 32, kernel_size=(3, 3), stride=(1, 1), padding=(1, 1))
              (1): ReLU()
            )
          )
          (1): RDB_Conv(
            (conv): Sequential(
              (0): Conv2d(96, 32, kernel_size=(3, 3), stride=(1, 1), padding=(1, 1))
              (1): ReLU()
            )
          )
          (2): RDB_Conv(
            (conv): Sequential(
              (0): Conv2d(128, 32, kernel_size=(3, 3), stride=(1, 1), padding=(1, 1))
              (1): ReLU()
            )
          )
          (3): RDB_Conv(
            (conv): Sequential(
              (0): Conv2d(160, 32, kernel_size=(3, 3), stride=(1, 1), padding=(1, 1))
              (1): ReLU()
            )
          )
          (4): RDB_Conv(
            (conv): Sequential(
              (0): Conv2d(192, 32, kernel_size=(3, 3), stride=(1, 1), padding=(1, 1))
              (1): ReLU()
            )
          )
          (5): RDB_Conv(
            (conv): Sequential(
              (0): Conv2d(224, 32, kernel_size=(3, 3), stride=(1, 1), padding=(1, 1))
              (1): ReLU()
            )
          )
          (6): RDB_Conv(
            (conv): Sequential(
              (0): Conv2d(256, 32, kernel_size=(3, 3), stride=(1, 1), padding=(1, 1))
              (1): ReLU()
            )
          )
          (7): RDB_Conv(
            (conv): Sequential(
              (0): Conv2d(288, 32, kernel_size=(3, 3), stride=(1, 1), padding=(1, 1))
              (1): ReLU()
            )
          )
        )
        (LFF): Conv2d(320, 64, kernel_size=(1, 1), stride=(1, 1))
      )
      (5): RDB(
        (convs): Sequential(
          (0): RDB_Conv(
            (conv): Sequential(
              (0): Conv2d(64, 32, kernel_size=(3, 3), stride=(1, 1), padding=(1, 1))
              (1): ReLU()
            )
          )
          (1): RDB_Conv(
            (conv): Sequential(
              (0): Conv2d(96, 32, kernel_size=(3, 3), stride=(1, 1), padding=(1, 1))
              (1): ReLU()
            )
          )
          (2): RDB_Conv(
            (conv): Sequential(
              (0): Conv2d(128, 32, kernel_size=(3, 3), stride=(1, 1), padding=(1, 1))
              (1): ReLU()
            )
          )
          (3): RDB_Conv(
            (conv): Sequential(
              (0): Conv2d(160, 32, kernel_size=(3, 3), stride=(1, 1), padding=(1, 1))
              (1): ReLU()
            )
          )
          (4): RDB_Conv(
            (conv): Sequential(
              (0): Conv2d(192, 32, kernel_size=(3, 3), stride=(1, 1), padding=(1, 1))
              (1): ReLU()
            )
          )
          (5): RDB_Conv(
            (conv): Sequential(
              (0): Conv2d(224, 32, kernel_size=(3, 3), stride=(1, 1), padding=(1, 1))
              (1): ReLU()
            )
          )
          (6): RDB_Conv(
            (conv): Sequential(
              (0): Conv2d(256, 32, kernel_size=(3, 3), stride=(1, 1), padding=(1, 1))
              (1): ReLU()
            )
          )
          (7): RDB_Conv(
            (conv): Sequential(
              (0): Conv2d(288, 32, kernel_size=(3, 3), stride=(1, 1), padding=(1, 1))
              (1): ReLU()
            )
          )
        )
        (LFF): Conv2d(320, 64, kernel_size=(1, 1), stride=(1, 1))
      )
    )
    (GFF): Sequential(
      (0): Conv2d(384, 64, kernel_size=(1, 1), stride=(1, 1))
      (1): Conv2d(64, 64, kernel_size=(3, 3), stride=(1, 1), padding=(1, 1))
    )
    (GW): GenWeights(
      (meta_block): Sequential(
        (0): Conv2d(1, 32, kernel_size=(3, 3), stride=(1, 1), padding=(1, 1))
        (1): ReLU(inplace=True)
        (2): Conv2d(32, 64, kernel_size=(3, 3), stride=(1, 1), padding=(1, 1))
        (3): ReLU(inplace=True)
        (4): Conv2d(64, 64, kernel_size=(3, 3), stride=(1, 1), padding=(1, 1))
        (5): ReLU(inplace=True)
        (6): Conv2d(64, 64, kernel_size=(3, 3), stride=(1, 1), padding=(1, 1))
        (7): ReLU(inplace=True)
        (8): Conv2d(64, 64, kernel_size=(3, 3), stride=(1, 1), padding=(1, 1))
      )
    )
    (RFN): FUSE_RDN(
      (SFENet1): Conv2d(2, 64, kernel_size=(3, 3), stride=(1, 1), padding=(1, 1))
      (SFENet2): Conv2d(64, 64, kernel_size=(3, 3), stride=(1, 1), padding=(1, 1))
      (RDBs): ModuleList(
        (0): RDB(
          (convs): Sequential(
            (0): RDB_Conv(
              (conv): Sequential(
                (0): Conv2d(64, 12, kernel_size=(3, 3), stride=(1, 1), padding=(1, 1))
                (1): ReLU()
              )
            )
            (1): RDB_Conv(
              (conv): Sequential(
                (0): Conv2d(76, 12, kernel_size=(3, 3), stride=(1, 1), padding=(1, 1))
                (1): ReLU()
              )
            )
            (2): RDB_Conv(
              (conv): Sequential(
                (0): Conv2d(88, 12, kernel_size=(3, 3), stride=(1, 1), padding=(1, 1))
                (1): ReLU()
              )
            )
            (3): RDB_Conv(
              (conv): Sequential(
                (0): Conv2d(100, 12, kernel_size=(3, 3), stride=(1, 1), padding=(1, 1))
                (1): ReLU()
              )
            )
            (4): RDB_Conv(
              (conv): Sequential(
                (0): Conv2d(112, 12, kernel_size=(3, 3), stride=(1, 1), padding=(1, 1))
                (1): ReLU()
              )
            )
            (5): RDB_Conv(
              (conv): Sequential(
                (0): Conv2d(124, 12, kernel_size=(3, 3), stride=(1, 1), padding=(1, 1))
                (1): ReLU()
              )
            )
          )
          (LFF): Conv2d(136, 64, kernel_size=(1, 1), stride=(1, 1))
        )
        (1): RDB(
          (convs): Sequential(
            (0): RDB_Conv(
              (conv): Sequential(
                (0): Conv2d(64, 12, kernel_size=(3, 3), stride=(1, 1), padding=(1, 1))
                (1): ReLU()
              )
            )
            (1): RDB_Conv(
              (conv): Sequential(
                (0): Conv2d(76, 12, kernel_size=(3, 3), stride=(1, 1), padding=(1, 1))
                (1): ReLU()
              )
            )
            (2): RDB_Conv(
              (conv): Sequential(
                (0): Conv2d(88, 12, kernel_size=(3, 3), stride=(1, 1), padding=(1, 1))
                (1): ReLU()
              )
            )
            (3): RDB_Conv(
              (conv): Sequential(
                (0): Conv2d(100, 12, kernel_size=(3, 3), stride=(1, 1), padding=(1, 1))
                (1): ReLU()
              )
            )
            (4): RDB_Conv(
              (conv): Sequential(
                (0): Conv2d(112, 12, kernel_size=(3, 3), stride=(1, 1), padding=(1, 1))
                (1): ReLU()
              )
            )
            (5): RDB_Conv(
              (conv): Sequential(
                (0): Conv2d(124, 12, kernel_size=(3, 3), stride=(1, 1), padding=(1, 1))
                (1): ReLU()
              )
            )
          )
          (LFF): Conv2d(136, 64, kernel_size=(1, 1), stride=(1, 1))
        )
        (2): RDB(
          (convs): Sequential(
            (0): RDB_Conv(
              (conv): Sequential(
                (0): Conv2d(64, 12, kernel_size=(3, 3), stride=(1, 1), padding=(1, 1))
                (1): ReLU()
              )
            )
            (1): RDB_Conv(
              (conv): Sequential(
                (0): Conv2d(76, 12, kernel_size=(3, 3), stride=(1, 1), padding=(1, 1))
                (1): ReLU()
              )
            )
            (2): RDB_Conv(
              (conv): Sequential(
                (0): Conv2d(88, 12, kernel_size=(3, 3), stride=(1, 1), padding=(1, 1))
                (1): ReLU()
              )
            )
            (3): RDB_Conv(
              (conv): Sequential(
                (0): Conv2d(100, 12, kernel_size=(3, 3), stride=(1, 1), padding=(1, 1))
                (1): ReLU()
              )
            )
            (4): RDB_Conv(
              (conv): Sequential(
                (0): Conv2d(112, 12, kernel_size=(3, 3), stride=(1, 1), padding=(1, 1))
                (1): ReLU()
              )
            )
            (5): RDB_Conv(
              (conv): Sequential(
                (0): Conv2d(124, 12, kernel_size=(3, 3), stride=(1, 1), padding=(1, 1))
                (1): ReLU()
              )
            )
          )
          (LFF): Conv2d(136, 64, kernel_size=(1, 1), stride=(1, 1))
        )
        (3): RDB(
          (convs): Sequential(
            (0): RDB_Conv(
              (conv): Sequential(
                (0): Conv2d(64, 12, kernel_size=(3, 3), stride=(1, 1), padding=(1, 1))
                (1): ReLU()
              )
            )
            (1): RDB_Conv(
              (conv): Sequential(
                (0): Conv2d(76, 12, kernel_size=(3, 3), stride=(1, 1), padding=(1, 1))
                (1): ReLU()
              )
            )
            (2): RDB_Conv(
              (conv): Sequential(
                (0): Conv2d(88, 12, kernel_size=(3, 3), stride=(1, 1), padding=(1, 1))
                (1): ReLU()
              )
            )
            (3): RDB_Conv(
              (conv): Sequential(
                (0): Conv2d(100, 12, kernel_size=(3, 3), stride=(1, 1), padding=(1, 1))
                (1): ReLU()
              )
            )
            (4): RDB_Conv(
              (conv): Sequential(
                (0): Conv2d(112, 12, kernel_size=(3, 3), stride=(1, 1), padding=(1, 1))
                (1): ReLU()
              )
            )
            (5): RDB_Conv(
              (conv): Sequential(
                (0): Conv2d(124, 12, kernel_size=(3, 3), stride=(1, 1), padding=(1, 1))
                (1): ReLU()
              )
            )
          )
          (LFF): Conv2d(136, 64, kernel_size=(1, 1), stride=(1, 1))
        )
      )
      (GFF): Sequential(
        (0): Conv2d(256, 64, kernel_size=(1, 1), stride=(1, 1))
        (1): Conv2d(64, 64, kernel_size=(3, 3), stride=(1, 1), padding=(1, 1))
      )
      (UPNet): Sequential(
        (0): Conv2d(64, 1, kernel_size=(3, 3), stride=(1, 1), padding=(1, 1))
      )
    )
  )
)DataParallel(
  (module): MSR_RDN(
    (SFENet1): Conv2d(3, 64, kernel_size=(3, 3), stride=(1, 1), padding=(1, 1))
    (SFENet2): Conv2d(64, 64, kernel_size=(3, 3), stride=(1, 1), padding=(1, 1))
    (RDBs): ModuleList(
      (0): RDB(
        (convs): Sequential(
          (0): RDB_Conv(
            (conv): Sequential(
              (0): Conv2d(64, 32, kernel_size=(3, 3), stride=(1, 1), padding=(1, 1))
              (1): ReLU()
            )
          )
          (1): RDB_Conv(
            (conv): Sequential(
              (0): Conv2d(96, 32, kernel_size=(3, 3), stride=(1, 1), padding=(1, 1))
              (1): ReLU()
            )
          )
          (2): RDB_Conv(
            (conv): Sequential(
              (0): Conv2d(128, 32, kernel_size=(3, 3), stride=(1, 1), padding=(1, 1))
              (1): ReLU()
            )
          )
          (3): RDB_Conv(
            (conv): Sequential(
              (0): Conv2d(160, 32, kernel_size=(3, 3), stride=(1, 1), padding=(1, 1))
              (1): ReLU()
            )
          )
          (4): RDB_Conv(
            (conv): Sequential(
              (0): Conv2d(192, 32, kernel_size=(3, 3), stride=(1, 1), padding=(1, 1))
              (1): ReLU()
            )
          )
          (5): RDB_Conv(
            (conv): Sequential(
              (0): Conv2d(224, 32, kernel_size=(3, 3), stride=(1, 1), padding=(1, 1))
              (1): ReLU()
            )
          )
          (6): RDB_Conv(
            (conv): Sequential(
              (0): Conv2d(256, 32, kernel_size=(3, 3), stride=(1, 1), padding=(1, 1))
              (1): ReLU()
            )
          )
          (7): RDB_Conv(
            (conv): Sequential(
              (0): Conv2d(288, 32, kernel_size=(3, 3), stride=(1, 1), padding=(1, 1))
              (1): ReLU()
            )
          )
        )
        (LFF): Conv2d(320, 64, kernel_size=(1, 1), stride=(1, 1))
      )
      (1): RDB(
        (convs): Sequential(
          (0): RDB_Conv(
            (conv): Sequential(
              (0): Conv2d(64, 32, kernel_size=(3, 3), stride=(1, 1), padding=(1, 1))
              (1): ReLU()
            )
          )
          (1): RDB_Conv(
            (conv): Sequential(
              (0): Conv2d(96, 32, kernel_size=(3, 3), stride=(1, 1), padding=(1, 1))
              (1): ReLU()
            )
          )
          (2): RDB_Conv(
            (conv): Sequential(
              (0): Conv2d(128, 32, kernel_size=(3, 3), stride=(1, 1), padding=(1, 1))
              (1): ReLU()
            )
          )
          (3): RDB_Conv(
            (conv): Sequential(
              (0): Conv2d(160, 32, kernel_size=(3, 3), stride=(1, 1), padding=(1, 1))
              (1): ReLU()
            )
          )
          (4): RDB_Conv(
            (conv): Sequential(
              (0): Conv2d(192, 32, kernel_size=(3, 3), stride=(1, 1), padding=(1, 1))
              (1): ReLU()
            )
          )
          (5): RDB_Conv(
            (conv): Sequential(
              (0): Conv2d(224, 32, kernel_size=(3, 3), stride=(1, 1), padding=(1, 1))
              (1): ReLU()
            )
          )
          (6): RDB_Conv(
            (conv): Sequential(
              (0): Conv2d(256, 32, kernel_size=(3, 3), stride=(1, 1), padding=(1, 1))
              (1): ReLU()
            )
          )
          (7): RDB_Conv(
            (conv): Sequential(
              (0): Conv2d(288, 32, kernel_size=(3, 3), stride=(1, 1), padding=(1, 1))
              (1): ReLU()
            )
          )
        )
        (LFF): Conv2d(320, 64, kernel_size=(1, 1), stride=(1, 1))
      )
      (2): RDB(
        (convs): Sequential(
          (0): RDB_Conv(
            (conv): Sequential(
              (0): Conv2d(64, 32, kernel_size=(3, 3), stride=(1, 1), padding=(1, 1))
              (1): ReLU()
            )
          )
          (1): RDB_Conv(
            (conv): Sequential(
              (0): Conv2d(96, 32, kernel_size=(3, 3), stride=(1, 1), padding=(1, 1))
              (1): ReLU()
            )
          )
          (2): RDB_Conv(
            (conv): Sequential(
              (0): Conv2d(128, 32, kernel_size=(3, 3), stride=(1, 1), padding=(1, 1))
              (1): ReLU()
            )
          )
          (3): RDB_Conv(
            (conv): Sequential(
              (0): Conv2d(160, 32, kernel_size=(3, 3), stride=(1, 1), padding=(1, 1))
              (1): ReLU()
            )
          )
          (4): RDB_Conv(
            (conv): Sequential(
              (0): Conv2d(192, 32, kernel_size=(3, 3), stride=(1, 1), padding=(1, 1))
              (1): ReLU()
            )
          )
          (5): RDB_Conv(
            (conv): Sequential(
              (0): Conv2d(224, 32, kernel_size=(3, 3), stride=(1, 1), padding=(1, 1))
              (1): ReLU()
            )
          )
          (6): RDB_Conv(
            (conv): Sequential(
              (0): Conv2d(256, 32, kernel_size=(3, 3), stride=(1, 1), padding=(1, 1))
              (1): ReLU()
            )
          )
          (7): RDB_Conv(
            (conv): Sequential(
              (0): Conv2d(288, 32, kernel_size=(3, 3), stride=(1, 1), padding=(1, 1))
              (1): ReLU()
            )
          )
        )
        (LFF): Conv2d(320, 64, kernel_size=(1, 1), stride=(1, 1))
      )
      (3): RDB(
        (convs): Sequential(
          (0): RDB_Conv(
            (conv): Sequential(
              (0): Conv2d(64, 32, kernel_size=(3, 3), stride=(1, 1), padding=(1, 1))
              (1): ReLU()
            )
          )
          (1): RDB_Conv(
            (conv): Sequential(
              (0): Conv2d(96, 32, kernel_size=(3, 3), stride=(1, 1), padding=(1, 1))
              (1): ReLU()
            )
          )
          (2): RDB_Conv(
            (conv): Sequential(
              (0): Conv2d(128, 32, kernel_size=(3, 3), stride=(1, 1), padding=(1, 1))
              (1): ReLU()
            )
          )
          (3): RDB_Conv(
            (conv): Sequential(
              (0): Conv2d(160, 32, kernel_size=(3, 3), stride=(1, 1), padding=(1, 1))
              (1): ReLU()
            )
          )
          (4): RDB_Conv(
            (conv): Sequential(
              (0): Conv2d(192, 32, kernel_size=(3, 3), stride=(1, 1), padding=(1, 1))
              (1): ReLU()
            )
          )
          (5): RDB_Conv(
            (conv): Sequential(
              (0): Conv2d(224, 32, kernel_size=(3, 3), stride=(1, 1), padding=(1, 1))
              (1): ReLU()
            )
          )
          (6): RDB_Conv(
            (conv): Sequential(
              (0): Conv2d(256, 32, kernel_size=(3, 3), stride=(1, 1), padding=(1, 1))
              (1): ReLU()
            )
          )
          (7): RDB_Conv(
            (conv): Sequential(
              (0): Conv2d(288, 32, kernel_size=(3, 3), stride=(1, 1), padding=(1, 1))
              (1): ReLU()
            )
          )
        )
        (LFF): Conv2d(320, 64, kernel_size=(1, 1), stride=(1, 1))
      )
      (4): RDB(
        (convs): Sequential(
          (0): RDB_Conv(
            (conv): Sequential(
              (0): Conv2d(64, 32, kernel_size=(3, 3), stride=(1, 1), padding=(1, 1))
              (1): ReLU()
            )
          )
          (1): RDB_Conv(
            (conv): Sequential(
              (0): Conv2d(96, 32, kernel_size=(3, 3), stride=(1, 1), padding=(1, 1))
              (1): ReLU()
            )
          )
          (2): RDB_Conv(
            (conv): Sequential(
              (0): Conv2d(128, 32, kernel_size=(3, 3), stride=(1, 1), padding=(1, 1))
              (1): ReLU()
            )
          )
          (3): RDB_Conv(
            (conv): Sequential(
              (0): Conv2d(160, 32, kernel_size=(3, 3), stride=(1, 1), padding=(1, 1))
              (1): ReLU()
            )
          )
          (4): RDB_Conv(
            (conv): Sequential(
              (0): Conv2d(192, 32, kernel_size=(3, 3), stride=(1, 1), padding=(1, 1))
              (1): ReLU()
            )
          )
          (5): RDB_Conv(
            (conv): Sequential(
              (0): Conv2d(224, 32, kernel_size=(3, 3), stride=(1, 1), padding=(1, 1))
              (1): ReLU()
            )
          )
          (6): RDB_Conv(
            (conv): Sequential(
              (0): Conv2d(256, 32, kernel_size=(3, 3), stride=(1, 1), padding=(1, 1))
              (1): ReLU()
            )
          )
          (7): RDB_Conv(
            (conv): Sequential(
              (0): Conv2d(288, 32, kernel_size=(3, 3), stride=(1, 1), padding=(1, 1))
              (1): ReLU()
            )
          )
        )
        (LFF): Conv2d(320, 64, kernel_size=(1, 1), stride=(1, 1))
      )
      (5): RDB(
        (convs): Sequential(
          (0): RDB_Conv(
            (conv): Sequential(
              (0): Conv2d(64, 32, kernel_size=(3, 3), stride=(1, 1), padding=(1, 1))
              (1): ReLU()
            )
          )
          (1): RDB_Conv(
            (conv): Sequential(
              (0): Conv2d(96, 32, kernel_size=(3, 3), stride=(1, 1), padding=(1, 1))
              (1): ReLU()
            )
          )
          (2): RDB_Conv(
            (conv): Sequential(
              (0): Conv2d(128, 32, kernel_size=(3, 3), stride=(1, 1), padding=(1, 1))
              (1): ReLU()
            )
          )
          (3): RDB_Conv(
            (conv): Sequential(
              (0): Conv2d(160, 32, kernel_size=(3, 3), stride=(1, 1), padding=(1, 1))
              (1): ReLU()
            )
          )
          (4): RDB_Conv(
            (conv): Sequential(
              (0): Conv2d(192, 32, kernel_size=(3, 3), stride=(1, 1), padding=(1, 1))
              (1): ReLU()
            )
          )
          (5): RDB_Conv(
            (conv): Sequential(
              (0): Conv2d(224, 32, kernel_size=(3, 3), stride=(1, 1), padding=(1, 1))
              (1): ReLU()
            )
          )
          (6): RDB_Conv(
            (conv): Sequential(
              (0): Conv2d(256, 32, kernel_size=(3, 3), stride=(1, 1), padding=(1, 1))
              (1): ReLU()
            )
          )
          (7): RDB_Conv(
            (conv): Sequential(
              (0): Conv2d(288, 32, kernel_size=(3, 3), stride=(1, 1), padding=(1, 1))
              (1): ReLU()
            )
          )
        )
        (LFF): Conv2d(320, 64, kernel_size=(1, 1), stride=(1, 1))
      )
    )
    (GFF): Sequential(
      (0): Conv2d(384, 64, kernel_size=(1, 1), stride=(1, 1))
      (1): Conv2d(64, 64, kernel_size=(3, 3), stride=(1, 1), padding=(1, 1))
    )
    (GW): GenWeights(
      (meta_block): Sequential(
        (0): Conv2d(1, 32, kernel_size=(3, 3), stride=(1, 1), padding=(1, 1))
        (1): ReLU(inplace=True)
        (2): Conv2d(32, 64, kernel_size=(3, 3), stride=(1, 1), padding=(1, 1))
        (3): ReLU(inplace=True)
        (4): Conv2d(64, 64, kernel_size=(3, 3), stride=(1, 1), padding=(1, 1))
        (5): ReLU(inplace=True)
        (6): Conv2d(64, 64, kernel_size=(3, 3), stride=(1, 1), padding=(1, 1))
        (7): ReLU(inplace=True)
        (8): Conv2d(64, 64, kernel_size=(3, 3), stride=(1, 1), padding=(1, 1))
      )
    )
    (RFN): FUSE_RDN(
      (SFENet1): Conv2d(2, 64, kernel_size=(3, 3), stride=(1, 1), padding=(1, 1))
      (SFENet2): Conv2d(64, 64, kernel_size=(3, 3), stride=(1, 1), padding=(1, 1))
      (RDBs): ModuleList(
        (0): RDB(
          (convs): Sequential(
            (0): RDB_Conv(
              (conv): Sequential(
                (0): Conv2d(64, 12, kernel_size=(3, 3), stride=(1, 1), padding=(1, 1))
                (1): ReLU()
              )
            )
            (1): RDB_Conv(
              (conv): Sequential(
                (0): Conv2d(76, 12, kernel_size=(3, 3), stride=(1, 1), padding=(1, 1))
                (1): ReLU()
              )
            )
            (2): RDB_Conv(
              (conv): Sequential(
                (0): Conv2d(88, 12, kernel_size=(3, 3), stride=(1, 1), padding=(1, 1))
                (1): ReLU()
              )
            )
            (3): RDB_Conv(
              (conv): Sequential(
                (0): Conv2d(100, 12, kernel_size=(3, 3), stride=(1, 1), padding=(1, 1))
                (1): ReLU()
              )
            )
            (4): RDB_Conv(
              (conv): Sequential(
                (0): Conv2d(112, 12, kernel_size=(3, 3), stride=(1, 1), padding=(1, 1))
                (1): ReLU()
              )
            )
            (5): RDB_Conv(
              (conv): Sequential(
                (0): Conv2d(124, 12, kernel_size=(3, 3), stride=(1, 1), padding=(1, 1))
                (1): ReLU()
              )
            )
          )
          (LFF): Conv2d(136, 64, kernel_size=(1, 1), stride=(1, 1))
        )
        (1): RDB(
          (convs): Sequential(
            (0): RDB_Conv(
              (conv): Sequential(
                (0): Conv2d(64, 12, kernel_size=(3, 3), stride=(1, 1), padding=(1, 1))
                (1): ReLU()
              )
            )
            (1): RDB_Conv(
              (conv): Sequential(
                (0): Conv2d(76, 12, kernel_size=(3, 3), stride=(1, 1), padding=(1, 1))
                (1): ReLU()
              )
            )
            (2): RDB_Conv(
              (conv): Sequential(
                (0): Conv2d(88, 12, kernel_size=(3, 3), stride=(1, 1), padding=(1, 1))
                (1): ReLU()
              )
            )
            (3): RDB_Conv(
              (conv): Sequential(
                (0): Conv2d(100, 12, kernel_size=(3, 3), stride=(1, 1), padding=(1, 1))
                (1): ReLU()
              )
            )
            (4): RDB_Conv(
              (conv): Sequential(
                (0): Conv2d(112, 12, kernel_size=(3, 3), stride=(1, 1), padding=(1, 1))
                (1): ReLU()
              )
            )
            (5): RDB_Conv(
              (conv): Sequential(
                (0): Conv2d(124, 12, kernel_size=(3, 3), stride=(1, 1), padding=(1, 1))
                (1): ReLU()
              )
            )
          )
          (LFF): Conv2d(136, 64, kernel_size=(1, 1), stride=(1, 1))
        )
        (2): RDB(
          (convs): Sequential(
            (0): RDB_Conv(
              (conv): Sequential(
                (0): Conv2d(64, 12, kernel_size=(3, 3), stride=(1, 1), padding=(1, 1))
                (1): ReLU()
              )
            )
            (1): RDB_Conv(
              (conv): Sequential(
                (0): Conv2d(76, 12, kernel_size=(3, 3), stride=(1, 1), padding=(1, 1))
                (1): ReLU()
              )
            )
            (2): RDB_Conv(
              (conv): Sequential(
                (0): Conv2d(88, 12, kernel_size=(3, 3), stride=(1, 1), padding=(1, 1))
                (1): ReLU()
              )
            )
            (3): RDB_Conv(
              (conv): Sequential(
                (0): Conv2d(100, 12, kernel_size=(3, 3), stride=(1, 1), padding=(1, 1))
                (1): ReLU()
              )
            )
            (4): RDB_Conv(
              (conv): Sequential(
                (0): Conv2d(112, 12, kernel_size=(3, 3), stride=(1, 1), padding=(1, 1))
                (1): ReLU()
              )
            )
            (5): RDB_Conv(
              (conv): Sequential(
                (0): Conv2d(124, 12, kernel_size=(3, 3), stride=(1, 1), padding=(1, 1))
                (1): ReLU()
              )
            )
          )
          (LFF): Conv2d(136, 64, kernel_size=(1, 1), stride=(1, 1))
        )
        (3): RDB(
          (convs): Sequential(
            (0): RDB_Conv(
              (conv): Sequential(
                (0): Conv2d(64, 12, kernel_size=(3, 3), stride=(1, 1), padding=(1, 1))
                (1): ReLU()
              )
            )
            (1): RDB_Conv(
              (conv): Sequential(
                (0): Conv2d(76, 12, kernel_size=(3, 3), stride=(1, 1), padding=(1, 1))
                (1): ReLU()
              )
            )
            (2): RDB_Conv(
              (conv): Sequential(
                (0): Conv2d(88, 12, kernel_size=(3, 3), stride=(1, 1), padding=(1, 1))
                (1): ReLU()
              )
            )
            (3): RDB_Conv(
              (conv): Sequential(
                (0): Conv2d(100, 12, kernel_size=(3, 3), stride=(1, 1), padding=(1, 1))
                (1): ReLU()
              )
            )
            (4): RDB_Conv(
              (conv): Sequential(
                (0): Conv2d(112, 12, kernel_size=(3, 3), stride=(1, 1), padding=(1, 1))
                (1): ReLU()
              )
            )
            (5): RDB_Conv(
              (conv): Sequential(
                (0): Conv2d(124, 12, kernel_size=(3, 3), stride=(1, 1), padding=(1, 1))
                (1): ReLU()
              )
            )
          )
          (LFF): Conv2d(136, 64, kernel_size=(1, 1), stride=(1, 1))
        )
      )
      (GFF): Sequential(
        (0): Conv2d(256, 64, kernel_size=(1, 1), stride=(1, 1))
        (1): Conv2d(64, 64, kernel_size=(3, 3), stride=(1, 1), padding=(1, 1))
      )
      (UPNet): Sequential(
        (0): Conv2d(64, 1, kernel_size=(3, 3), stride=(1, 1), padding=(1, 1))
      )
    )
  )
)DataParallel(
  (module): MSR_RDN(
    (SFENet1): Conv2d(3, 64, kernel_size=(3, 3), stride=(1, 1), padding=(1, 1))
    (SFENet2): Conv2d(64, 64, kernel_size=(3, 3), stride=(1, 1), padding=(1, 1))
    (RDBs): ModuleList(
      (0): RDB(
        (convs): Sequential(
          (0): RDB_Conv(
            (conv): Sequential(
              (0): Conv2d(64, 32, kernel_size=(3, 3), stride=(1, 1), padding=(1, 1))
              (1): ReLU()
            )
          )
          (1): RDB_Conv(
            (conv): Sequential(
              (0): Conv2d(96, 32, kernel_size=(3, 3), stride=(1, 1), padding=(1, 1))
              (1): ReLU()
            )
          )
          (2): RDB_Conv(
            (conv): Sequential(
              (0): Conv2d(128, 32, kernel_size=(3, 3), stride=(1, 1), padding=(1, 1))
              (1): ReLU()
            )
          )
          (3): RDB_Conv(
            (conv): Sequential(
              (0): Conv2d(160, 32, kernel_size=(3, 3), stride=(1, 1), padding=(1, 1))
              (1): ReLU()
            )
          )
          (4): RDB_Conv(
            (conv): Sequential(
              (0): Conv2d(192, 32, kernel_size=(3, 3), stride=(1, 1), padding=(1, 1))
              (1): ReLU()
            )
          )
          (5): RDB_Conv(
            (conv): Sequential(
              (0): Conv2d(224, 32, kernel_size=(3, 3), stride=(1, 1), padding=(1, 1))
              (1): ReLU()
            )
          )
          (6): RDB_Conv(
            (conv): Sequential(
              (0): Conv2d(256, 32, kernel_size=(3, 3), stride=(1, 1), padding=(1, 1))
              (1): ReLU()
            )
          )
          (7): RDB_Conv(
            (conv): Sequential(
              (0): Conv2d(288, 32, kernel_size=(3, 3), stride=(1, 1), padding=(1, 1))
              (1): ReLU()
            )
          )
        )
        (LFF): Conv2d(320, 64, kernel_size=(1, 1), stride=(1, 1))
      )
      (1): RDB(
        (convs): Sequential(
          (0): RDB_Conv(
            (conv): Sequential(
              (0): Conv2d(64, 32, kernel_size=(3, 3), stride=(1, 1), padding=(1, 1))
              (1): ReLU()
            )
          )
          (1): RDB_Conv(
            (conv): Sequential(
              (0): Conv2d(96, 32, kernel_size=(3, 3), stride=(1, 1), padding=(1, 1))
              (1): ReLU()
            )
          )
          (2): RDB_Conv(
            (conv): Sequential(
              (0): Conv2d(128, 32, kernel_size=(3, 3), stride=(1, 1), padding=(1, 1))
              (1): ReLU()
            )
          )
          (3): RDB_Conv(
            (conv): Sequential(
              (0): Conv2d(160, 32, kernel_size=(3, 3), stride=(1, 1), padding=(1, 1))
              (1): ReLU()
            )
          )
          (4): RDB_Conv(
            (conv): Sequential(
              (0): Conv2d(192, 32, kernel_size=(3, 3), stride=(1, 1), padding=(1, 1))
              (1): ReLU()
            )
          )
          (5): RDB_Conv(
            (conv): Sequential(
              (0): Conv2d(224, 32, kernel_size=(3, 3), stride=(1, 1), padding=(1, 1))
              (1): ReLU()
            )
          )
          (6): RDB_Conv(
            (conv): Sequential(
              (0): Conv2d(256, 32, kernel_size=(3, 3), stride=(1, 1), padding=(1, 1))
              (1): ReLU()
            )
          )
          (7): RDB_Conv(
            (conv): Sequential(
              (0): Conv2d(288, 32, kernel_size=(3, 3), stride=(1, 1), padding=(1, 1))
              (1): ReLU()
            )
          )
        )
        (LFF): Conv2d(320, 64, kernel_size=(1, 1), stride=(1, 1))
      )
      (2): RDB(
        (convs): Sequential(
          (0): RDB_Conv(
            (conv): Sequential(
              (0): Conv2d(64, 32, kernel_size=(3, 3), stride=(1, 1), padding=(1, 1))
              (1): ReLU()
            )
          )
          (1): RDB_Conv(
            (conv): Sequential(
              (0): Conv2d(96, 32, kernel_size=(3, 3), stride=(1, 1), padding=(1, 1))
              (1): ReLU()
            )
          )
          (2): RDB_Conv(
            (conv): Sequential(
              (0): Conv2d(128, 32, kernel_size=(3, 3), stride=(1, 1), padding=(1, 1))
              (1): ReLU()
            )
          )
          (3): RDB_Conv(
            (conv): Sequential(
              (0): Conv2d(160, 32, kernel_size=(3, 3), stride=(1, 1), padding=(1, 1))
              (1): ReLU()
            )
          )
          (4): RDB_Conv(
            (conv): Sequential(
              (0): Conv2d(192, 32, kernel_size=(3, 3), stride=(1, 1), padding=(1, 1))
              (1): ReLU()
            )
          )
          (5): RDB_Conv(
            (conv): Sequential(
              (0): Conv2d(224, 32, kernel_size=(3, 3), stride=(1, 1), padding=(1, 1))
              (1): ReLU()
            )
          )
          (6): RDB_Conv(
            (conv): Sequential(
              (0): Conv2d(256, 32, kernel_size=(3, 3), stride=(1, 1), padding=(1, 1))
              (1): ReLU()
            )
          )
          (7): RDB_Conv(
            (conv): Sequential(
              (0): Conv2d(288, 32, kernel_size=(3, 3), stride=(1, 1), padding=(1, 1))
              (1): ReLU()
            )
          )
        )
        (LFF): Conv2d(320, 64, kernel_size=(1, 1), stride=(1, 1))
      )
      (3): RDB(
        (convs): Sequential(
          (0): RDB_Conv(
            (conv): Sequential(
              (0): Conv2d(64, 32, kernel_size=(3, 3), stride=(1, 1), padding=(1, 1))
              (1): ReLU()
            )
          )
          (1): RDB_Conv(
            (conv): Sequential(
              (0): Conv2d(96, 32, kernel_size=(3, 3), stride=(1, 1), padding=(1, 1))
              (1): ReLU()
            )
          )
          (2): RDB_Conv(
            (conv): Sequential(
              (0): Conv2d(128, 32, kernel_size=(3, 3), stride=(1, 1), padding=(1, 1))
              (1): ReLU()
            )
          )
          (3): RDB_Conv(
            (conv): Sequential(
              (0): Conv2d(160, 32, kernel_size=(3, 3), stride=(1, 1), padding=(1, 1))
              (1): ReLU()
            )
          )
          (4): RDB_Conv(
            (conv): Sequential(
              (0): Conv2d(192, 32, kernel_size=(3, 3), stride=(1, 1), padding=(1, 1))
              (1): ReLU()
            )
          )
          (5): RDB_Conv(
            (conv): Sequential(
              (0): Conv2d(224, 32, kernel_size=(3, 3), stride=(1, 1), padding=(1, 1))
              (1): ReLU()
            )
          )
          (6): RDB_Conv(
            (conv): Sequential(
              (0): Conv2d(256, 32, kernel_size=(3, 3), stride=(1, 1), padding=(1, 1))
              (1): ReLU()
            )
          )
          (7): RDB_Conv(
            (conv): Sequential(
              (0): Conv2d(288, 32, kernel_size=(3, 3), stride=(1, 1), padding=(1, 1))
              (1): ReLU()
            )
          )
        )
        (LFF): Conv2d(320, 64, kernel_size=(1, 1), stride=(1, 1))
      )
      (4): RDB(
        (convs): Sequential(
          (0): RDB_Conv(
            (conv): Sequential(
              (0): Conv2d(64, 32, kernel_size=(3, 3), stride=(1, 1), padding=(1, 1))
              (1): ReLU()
            )
          )
          (1): RDB_Conv(
            (conv): Sequential(
              (0): Conv2d(96, 32, kernel_size=(3, 3), stride=(1, 1), padding=(1, 1))
              (1): ReLU()
            )
          )
          (2): RDB_Conv(
            (conv): Sequential(
              (0): Conv2d(128, 32, kernel_size=(3, 3), stride=(1, 1), padding=(1, 1))
              (1): ReLU()
            )
          )
          (3): RDB_Conv(
            (conv): Sequential(
              (0): Conv2d(160, 32, kernel_size=(3, 3), stride=(1, 1), padding=(1, 1))
              (1): ReLU()
            )
          )
          (4): RDB_Conv(
            (conv): Sequential(
              (0): Conv2d(192, 32, kernel_size=(3, 3), stride=(1, 1), padding=(1, 1))
              (1): ReLU()
            )
          )
          (5): RDB_Conv(
            (conv): Sequential(
              (0): Conv2d(224, 32, kernel_size=(3, 3), stride=(1, 1), padding=(1, 1))
              (1): ReLU()
            )
          )
          (6): RDB_Conv(
            (conv): Sequential(
              (0): Conv2d(256, 32, kernel_size=(3, 3), stride=(1, 1), padding=(1, 1))
              (1): ReLU()
            )
          )
          (7): RDB_Conv(
            (conv): Sequential(
              (0): Conv2d(288, 32, kernel_size=(3, 3), stride=(1, 1), padding=(1, 1))
              (1): ReLU()
            )
          )
        )
        (LFF): Conv2d(320, 64, kernel_size=(1, 1), stride=(1, 1))
      )
      (5): RDB(
        (convs): Sequential(
          (0): RDB_Conv(
            (conv): Sequential(
              (0): Conv2d(64, 32, kernel_size=(3, 3), stride=(1, 1), padding=(1, 1))
              (1): ReLU()
            )
          )
          (1): RDB_Conv(
            (conv): Sequential(
              (0): Conv2d(96, 32, kernel_size=(3, 3), stride=(1, 1), padding=(1, 1))
              (1): ReLU()
            )
          )
          (2): RDB_Conv(
            (conv): Sequential(
              (0): Conv2d(128, 32, kernel_size=(3, 3), stride=(1, 1), padding=(1, 1))
              (1): ReLU()
            )
          )
          (3): RDB_Conv(
            (conv): Sequential(
              (0): Conv2d(160, 32, kernel_size=(3, 3), stride=(1, 1), padding=(1, 1))
              (1): ReLU()
            )
          )
          (4): RDB_Conv(
            (conv): Sequential(
              (0): Conv2d(192, 32, kernel_size=(3, 3), stride=(1, 1), padding=(1, 1))
              (1): ReLU()
            )
          )
          (5): RDB_Conv(
            (conv): Sequential(
              (0): Conv2d(224, 32, kernel_size=(3, 3), stride=(1, 1), padding=(1, 1))
              (1): ReLU()
            )
          )
          (6): RDB_Conv(
            (conv): Sequential(
              (0): Conv2d(256, 32, kernel_size=(3, 3), stride=(1, 1), padding=(1, 1))
              (1): ReLU()
            )
          )
          (7): RDB_Conv(
            (conv): Sequential(
              (0): Conv2d(288, 32, kernel_size=(3, 3), stride=(1, 1), padding=(1, 1))
              (1): ReLU()
            )
          )
        )
        (LFF): Conv2d(320, 64, kernel_size=(1, 1), stride=(1, 1))
      )
    )
    (GFF): Sequential(
      (0): Conv2d(384, 64, kernel_size=(1, 1), stride=(1, 1))
      (1): Conv2d(64, 64, kernel_size=(3, 3), stride=(1, 1), padding=(1, 1))
    )
    (GW): GenWeights(
      (meta_block): Sequential(
        (0): Conv2d(1, 32, kernel_size=(3, 3), stride=(1, 1), padding=(1, 1))
        (1): ReLU(inplace=True)
        (2): Conv2d(32, 64, kernel_size=(3, 3), stride=(1, 1), padding=(1, 1))
        (3): ReLU(inplace=True)
        (4): Conv2d(64, 64, kernel_size=(3, 3), stride=(1, 1), padding=(1, 1))
        (5): ReLU(inplace=True)
        (6): Conv2d(64, 64, kernel_size=(3, 3), stride=(1, 1), padding=(1, 1))
        (7): ReLU(inplace=True)
        (8): Conv2d(64, 64, kernel_size=(3, 3), stride=(1, 1), padding=(1, 1))
      )
    )
    (RFN): FUSE_RDN(
      (SFENet1): Conv2d(2, 64, kernel_size=(3, 3), stride=(1, 1), padding=(1, 1))
      (SFENet2): Conv2d(64, 64, kernel_size=(3, 3), stride=(1, 1), padding=(1, 1))
      (RDBs): ModuleList(
        (0): RDB(
          (convs): Sequential(
            (0): RDB_Conv(
              (conv): Sequential(
                (0): Conv2d(64, 12, kernel_size=(3, 3), stride=(1, 1), padding=(1, 1))
                (1): ReLU()
              )
            )
            (1): RDB_Conv(
              (conv): Sequential(
                (0): Conv2d(76, 12, kernel_size=(3, 3), stride=(1, 1), padding=(1, 1))
                (1): ReLU()
              )
            )
            (2): RDB_Conv(
              (conv): Sequential(
                (0): Conv2d(88, 12, kernel_size=(3, 3), stride=(1, 1), padding=(1, 1))
                (1): ReLU()
              )
            )
            (3): RDB_Conv(
              (conv): Sequential(
                (0): Conv2d(100, 12, kernel_size=(3, 3), stride=(1, 1), padding=(1, 1))
                (1): ReLU()
              )
            )
            (4): RDB_Conv(
              (conv): Sequential(
                (0): Conv2d(112, 12, kernel_size=(3, 3), stride=(1, 1), padding=(1, 1))
                (1): ReLU()
              )
            )
            (5): RDB_Conv(
              (conv): Sequential(
                (0): Conv2d(124, 12, kernel_size=(3, 3), stride=(1, 1), padding=(1, 1))
                (1): ReLU()
              )
            )
          )
          (LFF): Conv2d(136, 64, kernel_size=(1, 1), stride=(1, 1))
        )
        (1): RDB(
          (convs): Sequential(
            (0): RDB_Conv(
              (conv): Sequential(
                (0): Conv2d(64, 12, kernel_size=(3, 3), stride=(1, 1), padding=(1, 1))
                (1): ReLU()
              )
            )
            (1): RDB_Conv(
              (conv): Sequential(
                (0): Conv2d(76, 12, kernel_size=(3, 3), stride=(1, 1), padding=(1, 1))
                (1): ReLU()
              )
            )
            (2): RDB_Conv(
              (conv): Sequential(
                (0): Conv2d(88, 12, kernel_size=(3, 3), stride=(1, 1), padding=(1, 1))
                (1): ReLU()
              )
            )
            (3): RDB_Conv(
              (conv): Sequential(
                (0): Conv2d(100, 12, kernel_size=(3, 3), stride=(1, 1), padding=(1, 1))
                (1): ReLU()
              )
            )
            (4): RDB_Conv(
              (conv): Sequential(
                (0): Conv2d(112, 12, kernel_size=(3, 3), stride=(1, 1), padding=(1, 1))
                (1): ReLU()
              )
            )
            (5): RDB_Conv(
              (conv): Sequential(
                (0): Conv2d(124, 12, kernel_size=(3, 3), stride=(1, 1), padding=(1, 1))
                (1): ReLU()
              )
            )
          )
          (LFF): Conv2d(136, 64, kernel_size=(1, 1), stride=(1, 1))
        )
        (2): RDB(
          (convs): Sequential(
            (0): RDB_Conv(
              (conv): Sequential(
                (0): Conv2d(64, 12, kernel_size=(3, 3), stride=(1, 1), padding=(1, 1))
                (1): ReLU()
              )
            )
            (1): RDB_Conv(
              (conv): Sequential(
                (0): Conv2d(76, 12, kernel_size=(3, 3), stride=(1, 1), padding=(1, 1))
                (1): ReLU()
              )
            )
            (2): RDB_Conv(
              (conv): Sequential(
                (0): Conv2d(88, 12, kernel_size=(3, 3), stride=(1, 1), padding=(1, 1))
                (1): ReLU()
              )
            )
            (3): RDB_Conv(
              (conv): Sequential(
                (0): Conv2d(100, 12, kernel_size=(3, 3), stride=(1, 1), padding=(1, 1))
                (1): ReLU()
              )
            )
            (4): RDB_Conv(
              (conv): Sequential(
                (0): Conv2d(112, 12, kernel_size=(3, 3), stride=(1, 1), padding=(1, 1))
                (1): ReLU()
              )
            )
            (5): RDB_Conv(
              (conv): Sequential(
                (0): Conv2d(124, 12, kernel_size=(3, 3), stride=(1, 1), padding=(1, 1))
                (1): ReLU()
              )
            )
          )
          (LFF): Conv2d(136, 64, kernel_size=(1, 1), stride=(1, 1))
        )
        (3): RDB(
          (convs): Sequential(
            (0): RDB_Conv(
              (conv): Sequential(
                (0): Conv2d(64, 12, kernel_size=(3, 3), stride=(1, 1), padding=(1, 1))
                (1): ReLU()
              )
            )
            (1): RDB_Conv(
              (conv): Sequential(
                (0): Conv2d(76, 12, kernel_size=(3, 3), stride=(1, 1), padding=(1, 1))
                (1): ReLU()
              )
            )
            (2): RDB_Conv(
              (conv): Sequential(
                (0): Conv2d(88, 12, kernel_size=(3, 3), stride=(1, 1), padding=(1, 1))
                (1): ReLU()
              )
            )
            (3): RDB_Conv(
              (conv): Sequential(
                (0): Conv2d(100, 12, kernel_size=(3, 3), stride=(1, 1), padding=(1, 1))
                (1): ReLU()
              )
            )
            (4): RDB_Conv(
              (conv): Sequential(
                (0): Conv2d(112, 12, kernel_size=(3, 3), stride=(1, 1), padding=(1, 1))
                (1): ReLU()
              )
            )
            (5): RDB_Conv(
              (conv): Sequential(
                (0): Conv2d(124, 12, kernel_size=(3, 3), stride=(1, 1), padding=(1, 1))
                (1): ReLU()
              )
            )
          )
          (LFF): Conv2d(136, 64, kernel_size=(1, 1), stride=(1, 1))
        )
      )
      (GFF): Sequential(
        (0): Conv2d(256, 64, kernel_size=(1, 1), stride=(1, 1))
        (1): Conv2d(64, 64, kernel_size=(3, 3), stride=(1, 1), padding=(1, 1))
      )
      (UPNet): Sequential(
        (0): Conv2d(64, 1, kernel_size=(3, 3), stride=(1, 1), padding=(1, 1))
      )
    )
  )
)DataParallel(
  (module): MSR_RDN(
    (SFENet1): Conv2d(3, 64, kernel_size=(3, 3), stride=(1, 1), padding=(1, 1))
    (SFENet2): Conv2d(64, 64, kernel_size=(3, 3), stride=(1, 1), padding=(1, 1))
    (RDBs): ModuleList(
      (0): RDB(
        (convs): Sequential(
          (0): RDB_Conv(
            (conv): Sequential(
              (0): Conv2d(64, 32, kernel_size=(3, 3), stride=(1, 1), padding=(1, 1))
              (1): ReLU()
            )
          )
          (1): RDB_Conv(
            (conv): Sequential(
              (0): Conv2d(96, 32, kernel_size=(3, 3), stride=(1, 1), padding=(1, 1))
              (1): ReLU()
            )
          )
          (2): RDB_Conv(
            (conv): Sequential(
              (0): Conv2d(128, 32, kernel_size=(3, 3), stride=(1, 1), padding=(1, 1))
              (1): ReLU()
            )
          )
          (3): RDB_Conv(
            (conv): Sequential(
              (0): Conv2d(160, 32, kernel_size=(3, 3), stride=(1, 1), padding=(1, 1))
              (1): ReLU()
            )
          )
          (4): RDB_Conv(
            (conv): Sequential(
              (0): Conv2d(192, 32, kernel_size=(3, 3), stride=(1, 1), padding=(1, 1))
              (1): ReLU()
            )
          )
          (5): RDB_Conv(
            (conv): Sequential(
              (0): Conv2d(224, 32, kernel_size=(3, 3), stride=(1, 1), padding=(1, 1))
              (1): ReLU()
            )
          )
          (6): RDB_Conv(
            (conv): Sequential(
              (0): Conv2d(256, 32, kernel_size=(3, 3), stride=(1, 1), padding=(1, 1))
              (1): ReLU()
            )
          )
          (7): RDB_Conv(
            (conv): Sequential(
              (0): Conv2d(288, 32, kernel_size=(3, 3), stride=(1, 1), padding=(1, 1))
              (1): ReLU()
            )
          )
        )
        (LFF): Conv2d(320, 64, kernel_size=(1, 1), stride=(1, 1))
      )
      (1): RDB(
        (convs): Sequential(
          (0): RDB_Conv(
            (conv): Sequential(
              (0): Conv2d(64, 32, kernel_size=(3, 3), stride=(1, 1), padding=(1, 1))
              (1): ReLU()
            )
          )
          (1): RDB_Conv(
            (conv): Sequential(
              (0): Conv2d(96, 32, kernel_size=(3, 3), stride=(1, 1), padding=(1, 1))
              (1): ReLU()
            )
          )
          (2): RDB_Conv(
            (conv): Sequential(
              (0): Conv2d(128, 32, kernel_size=(3, 3), stride=(1, 1), padding=(1, 1))
              (1): ReLU()
            )
          )
          (3): RDB_Conv(
            (conv): Sequential(
              (0): Conv2d(160, 32, kernel_size=(3, 3), stride=(1, 1), padding=(1, 1))
              (1): ReLU()
            )
          )
          (4): RDB_Conv(
            (conv): Sequential(
              (0): Conv2d(192, 32, kernel_size=(3, 3), stride=(1, 1), padding=(1, 1))
              (1): ReLU()
            )
          )
          (5): RDB_Conv(
            (conv): Sequential(
              (0): Conv2d(224, 32, kernel_size=(3, 3), stride=(1, 1), padding=(1, 1))
              (1): ReLU()
            )
          )
          (6): RDB_Conv(
            (conv): Sequential(
              (0): Conv2d(256, 32, kernel_size=(3, 3), stride=(1, 1), padding=(1, 1))
              (1): ReLU()
            )
          )
          (7): RDB_Conv(
            (conv): Sequential(
              (0): Conv2d(288, 32, kernel_size=(3, 3), stride=(1, 1), padding=(1, 1))
              (1): ReLU()
            )
          )
        )
        (LFF): Conv2d(320, 64, kernel_size=(1, 1), stride=(1, 1))
      )
      (2): RDB(
        (convs): Sequential(
          (0): RDB_Conv(
            (conv): Sequential(
              (0): Conv2d(64, 32, kernel_size=(3, 3), stride=(1, 1), padding=(1, 1))
              (1): ReLU()
            )
          )
          (1): RDB_Conv(
            (conv): Sequential(
              (0): Conv2d(96, 32, kernel_size=(3, 3), stride=(1, 1), padding=(1, 1))
              (1): ReLU()
            )
          )
          (2): RDB_Conv(
            (conv): Sequential(
              (0): Conv2d(128, 32, kernel_size=(3, 3), stride=(1, 1), padding=(1, 1))
              (1): ReLU()
            )
          )
          (3): RDB_Conv(
            (conv): Sequential(
              (0): Conv2d(160, 32, kernel_size=(3, 3), stride=(1, 1), padding=(1, 1))
              (1): ReLU()
            )
          )
          (4): RDB_Conv(
            (conv): Sequential(
              (0): Conv2d(192, 32, kernel_size=(3, 3), stride=(1, 1), padding=(1, 1))
              (1): ReLU()
            )
          )
          (5): RDB_Conv(
            (conv): Sequential(
              (0): Conv2d(224, 32, kernel_size=(3, 3), stride=(1, 1), padding=(1, 1))
              (1): ReLU()
            )
          )
          (6): RDB_Conv(
            (conv): Sequential(
              (0): Conv2d(256, 32, kernel_size=(3, 3), stride=(1, 1), padding=(1, 1))
              (1): ReLU()
            )
          )
          (7): RDB_Conv(
            (conv): Sequential(
              (0): Conv2d(288, 32, kernel_size=(3, 3), stride=(1, 1), padding=(1, 1))
              (1): ReLU()
            )
          )
        )
        (LFF): Conv2d(320, 64, kernel_size=(1, 1), stride=(1, 1))
      )
      (3): RDB(
        (convs): Sequential(
          (0): RDB_Conv(
            (conv): Sequential(
              (0): Conv2d(64, 32, kernel_size=(3, 3), stride=(1, 1), padding=(1, 1))
              (1): ReLU()
            )
          )
          (1): RDB_Conv(
            (conv): Sequential(
              (0): Conv2d(96, 32, kernel_size=(3, 3), stride=(1, 1), padding=(1, 1))
              (1): ReLU()
            )
          )
          (2): RDB_Conv(
            (conv): Sequential(
              (0): Conv2d(128, 32, kernel_size=(3, 3), stride=(1, 1), padding=(1, 1))
              (1): ReLU()
            )
          )
          (3): RDB_Conv(
            (conv): Sequential(
              (0): Conv2d(160, 32, kernel_size=(3, 3), stride=(1, 1), padding=(1, 1))
              (1): ReLU()
            )
          )
          (4): RDB_Conv(
            (conv): Sequential(
              (0): Conv2d(192, 32, kernel_size=(3, 3), stride=(1, 1), padding=(1, 1))
              (1): ReLU()
            )
          )
          (5): RDB_Conv(
            (conv): Sequential(
              (0): Conv2d(224, 32, kernel_size=(3, 3), stride=(1, 1), padding=(1, 1))
              (1): ReLU()
            )
          )
          (6): RDB_Conv(
            (conv): Sequential(
              (0): Conv2d(256, 32, kernel_size=(3, 3), stride=(1, 1), padding=(1, 1))
              (1): ReLU()
            )
          )
          (7): RDB_Conv(
            (conv): Sequential(
              (0): Conv2d(288, 32, kernel_size=(3, 3), stride=(1, 1), padding=(1, 1))
              (1): ReLU()
            )
          )
        )
        (LFF): Conv2d(320, 64, kernel_size=(1, 1), stride=(1, 1))
      )
      (4): RDB(
        (convs): Sequential(
          (0): RDB_Conv(
            (conv): Sequential(
              (0): Conv2d(64, 32, kernel_size=(3, 3), stride=(1, 1), padding=(1, 1))
              (1): ReLU()
            )
          )
          (1): RDB_Conv(
            (conv): Sequential(
              (0): Conv2d(96, 32, kernel_size=(3, 3), stride=(1, 1), padding=(1, 1))
              (1): ReLU()
            )
          )
          (2): RDB_Conv(
            (conv): Sequential(
              (0): Conv2d(128, 32, kernel_size=(3, 3), stride=(1, 1), padding=(1, 1))
              (1): ReLU()
            )
          )
          (3): RDB_Conv(
            (conv): Sequential(
              (0): Conv2d(160, 32, kernel_size=(3, 3), stride=(1, 1), padding=(1, 1))
              (1): ReLU()
            )
          )
          (4): RDB_Conv(
            (conv): Sequential(
              (0): Conv2d(192, 32, kernel_size=(3, 3), stride=(1, 1), padding=(1, 1))
              (1): ReLU()
            )
          )
          (5): RDB_Conv(
            (conv): Sequential(
              (0): Conv2d(224, 32, kernel_size=(3, 3), stride=(1, 1), padding=(1, 1))
              (1): ReLU()
            )
          )
          (6): RDB_Conv(
            (conv): Sequential(
              (0): Conv2d(256, 32, kernel_size=(3, 3), stride=(1, 1), padding=(1, 1))
              (1): ReLU()
            )
          )
          (7): RDB_Conv(
            (conv): Sequential(
              (0): Conv2d(288, 32, kernel_size=(3, 3), stride=(1, 1), padding=(1, 1))
              (1): ReLU()
            )
          )
        )
        (LFF): Conv2d(320, 64, kernel_size=(1, 1), stride=(1, 1))
      )
      (5): RDB(
        (convs): Sequential(
          (0): RDB_Conv(
            (conv): Sequential(
              (0): Conv2d(64, 32, kernel_size=(3, 3), stride=(1, 1), padding=(1, 1))
              (1): ReLU()
            )
          )
          (1): RDB_Conv(
            (conv): Sequential(
              (0): Conv2d(96, 32, kernel_size=(3, 3), stride=(1, 1), padding=(1, 1))
              (1): ReLU()
            )
          )
          (2): RDB_Conv(
            (conv): Sequential(
              (0): Conv2d(128, 32, kernel_size=(3, 3), stride=(1, 1), padding=(1, 1))
              (1): ReLU()
            )
          )
          (3): RDB_Conv(
            (conv): Sequential(
              (0): Conv2d(160, 32, kernel_size=(3, 3), stride=(1, 1), padding=(1, 1))
              (1): ReLU()
            )
          )
          (4): RDB_Conv(
            (conv): Sequential(
              (0): Conv2d(192, 32, kernel_size=(3, 3), stride=(1, 1), padding=(1, 1))
              (1): ReLU()
            )
          )
          (5): RDB_Conv(
            (conv): Sequential(
              (0): Conv2d(224, 32, kernel_size=(3, 3), stride=(1, 1), padding=(1, 1))
              (1): ReLU()
            )
          )
          (6): RDB_Conv(
            (conv): Sequential(
              (0): Conv2d(256, 32, kernel_size=(3, 3), stride=(1, 1), padding=(1, 1))
              (1): ReLU()
            )
          )
          (7): RDB_Conv(
            (conv): Sequential(
              (0): Conv2d(288, 32, kernel_size=(3, 3), stride=(1, 1), padding=(1, 1))
              (1): ReLU()
            )
          )
        )
        (LFF): Conv2d(320, 64, kernel_size=(1, 1), stride=(1, 1))
      )
    )
    (GFF): Sequential(
      (0): Conv2d(384, 64, kernel_size=(1, 1), stride=(1, 1))
      (1): Conv2d(64, 64, kernel_size=(3, 3), stride=(1, 1), padding=(1, 1))
    )
    (GW): GenWeights(
      (meta_block): Sequential(
        (0): Conv2d(1, 32, kernel_size=(3, 3), stride=(1, 1), padding=(1, 1))
        (1): ReLU(inplace=True)
        (2): Conv2d(32, 64, kernel_size=(3, 3), stride=(1, 1), padding=(1, 1))
        (3): ReLU(inplace=True)
        (4): Conv2d(64, 64, kernel_size=(3, 3), stride=(1, 1), padding=(1, 1))
        (5): ReLU(inplace=True)
        (6): Conv2d(64, 64, kernel_size=(3, 3), stride=(1, 1), padding=(1, 1))
        (7): ReLU(inplace=True)
        (8): Conv2d(64, 64, kernel_size=(3, 3), stride=(1, 1), padding=(1, 1))
      )
    )
    (RFN): FUSE_RDN(
      (SFENet1): Conv2d(2, 64, kernel_size=(3, 3), stride=(1, 1), padding=(1, 1))
      (SFENet2): Conv2d(64, 64, kernel_size=(3, 3), stride=(1, 1), padding=(1, 1))
      (RDBs): ModuleList(
        (0): RDB(
          (convs): Sequential(
            (0): RDB_Conv(
              (conv): Sequential(
                (0): Conv2d(64, 12, kernel_size=(3, 3), stride=(1, 1), padding=(1, 1))
                (1): ReLU()
              )
            )
            (1): RDB_Conv(
              (conv): Sequential(
                (0): Conv2d(76, 12, kernel_size=(3, 3), stride=(1, 1), padding=(1, 1))
                (1): ReLU()
              )
            )
            (2): RDB_Conv(
              (conv): Sequential(
                (0): Conv2d(88, 12, kernel_size=(3, 3), stride=(1, 1), padding=(1, 1))
                (1): ReLU()
              )
            )
            (3): RDB_Conv(
              (conv): Sequential(
                (0): Conv2d(100, 12, kernel_size=(3, 3), stride=(1, 1), padding=(1, 1))
                (1): ReLU()
              )
            )
            (4): RDB_Conv(
              (conv): Sequential(
                (0): Conv2d(112, 12, kernel_size=(3, 3), stride=(1, 1), padding=(1, 1))
                (1): ReLU()
              )
            )
            (5): RDB_Conv(
              (conv): Sequential(
                (0): Conv2d(124, 12, kernel_size=(3, 3), stride=(1, 1), padding=(1, 1))
                (1): ReLU()
              )
            )
          )
          (LFF): Conv2d(136, 64, kernel_size=(1, 1), stride=(1, 1))
        )
        (1): RDB(
          (convs): Sequential(
            (0): RDB_Conv(
              (conv): Sequential(
                (0): Conv2d(64, 12, kernel_size=(3, 3), stride=(1, 1), padding=(1, 1))
                (1): ReLU()
              )
            )
            (1): RDB_Conv(
              (conv): Sequential(
                (0): Conv2d(76, 12, kernel_size=(3, 3), stride=(1, 1), padding=(1, 1))
                (1): ReLU()
              )
            )
            (2): RDB_Conv(
              (conv): Sequential(
                (0): Conv2d(88, 12, kernel_size=(3, 3), stride=(1, 1), padding=(1, 1))
                (1): ReLU()
              )
            )
            (3): RDB_Conv(
              (conv): Sequential(
                (0): Conv2d(100, 12, kernel_size=(3, 3), stride=(1, 1), padding=(1, 1))
                (1): ReLU()
              )
            )
            (4): RDB_Conv(
              (conv): Sequential(
                (0): Conv2d(112, 12, kernel_size=(3, 3), stride=(1, 1), padding=(1, 1))
                (1): ReLU()
              )
            )
            (5): RDB_Conv(
              (conv): Sequential(
                (0): Conv2d(124, 12, kernel_size=(3, 3), stride=(1, 1), padding=(1, 1))
                (1): ReLU()
              )
            )
          )
          (LFF): Conv2d(136, 64, kernel_size=(1, 1), stride=(1, 1))
        )
        (2): RDB(
          (convs): Sequential(
            (0): RDB_Conv(
              (conv): Sequential(
                (0): Conv2d(64, 12, kernel_size=(3, 3), stride=(1, 1), padding=(1, 1))
                (1): ReLU()
              )
            )
            (1): RDB_Conv(
              (conv): Sequential(
                (0): Conv2d(76, 12, kernel_size=(3, 3), stride=(1, 1), padding=(1, 1))
                (1): ReLU()
              )
            )
            (2): RDB_Conv(
              (conv): Sequential(
                (0): Conv2d(88, 12, kernel_size=(3, 3), stride=(1, 1), padding=(1, 1))
                (1): ReLU()
              )
            )
            (3): RDB_Conv(
              (conv): Sequential(
                (0): Conv2d(100, 12, kernel_size=(3, 3), stride=(1, 1), padding=(1, 1))
                (1): ReLU()
              )
            )
            (4): RDB_Conv(
              (conv): Sequential(
                (0): Conv2d(112, 12, kernel_size=(3, 3), stride=(1, 1), padding=(1, 1))
                (1): ReLU()
              )
            )
            (5): RDB_Conv(
              (conv): Sequential(
                (0): Conv2d(124, 12, kernel_size=(3, 3), stride=(1, 1), padding=(1, 1))
                (1): ReLU()
              )
            )
          )
          (LFF): Conv2d(136, 64, kernel_size=(1, 1), stride=(1, 1))
        )
        (3): RDB(
          (convs): Sequential(
            (0): RDB_Conv(
              (conv): Sequential(
                (0): Conv2d(64, 12, kernel_size=(3, 3), stride=(1, 1), padding=(1, 1))
                (1): ReLU()
              )
            )
            (1): RDB_Conv(
              (conv): Sequential(
                (0): Conv2d(76, 12, kernel_size=(3, 3), stride=(1, 1), padding=(1, 1))
                (1): ReLU()
              )
            )
            (2): RDB_Conv(
              (conv): Sequential(
                (0): Conv2d(88, 12, kernel_size=(3, 3), stride=(1, 1), padding=(1, 1))
                (1): ReLU()
              )
            )
            (3): RDB_Conv(
              (conv): Sequential(
                (0): Conv2d(100, 12, kernel_size=(3, 3), stride=(1, 1), padding=(1, 1))
                (1): ReLU()
              )
            )
            (4): RDB_Conv(
              (conv): Sequential(
                (0): Conv2d(112, 12, kernel_size=(3, 3), stride=(1, 1), padding=(1, 1))
                (1): ReLU()
              )
            )
            (5): RDB_Conv(
              (conv): Sequential(
                (0): Conv2d(124, 12, kernel_size=(3, 3), stride=(1, 1), padding=(1, 1))
                (1): ReLU()
              )
            )
          )
          (LFF): Conv2d(136, 64, kernel_size=(1, 1), stride=(1, 1))
        )
      )
      (GFF): Sequential(
        (0): Conv2d(256, 64, kernel_size=(1, 1), stride=(1, 1))
        (1): Conv2d(64, 64, kernel_size=(3, 3), stride=(1, 1), padding=(1, 1))
      )
      (UPNet): Sequential(
        (0): Conv2d(64, 1, kernel_size=(3, 3), stride=(1, 1), padding=(1, 1))
      )
    )
  )
)DataParallel(
  (module): MSR_RDN(
    (SFENet1): Conv2d(3, 64, kernel_size=(3, 3), stride=(1, 1), padding=(1, 1))
    (SFENet2): Conv2d(64, 64, kernel_size=(3, 3), stride=(1, 1), padding=(1, 1))
    (RDBs): ModuleList(
      (0): RDB(
        (convs): Sequential(
          (0): RDB_Conv(
            (conv): Sequential(
              (0): Conv2d(64, 32, kernel_size=(3, 3), stride=(1, 1), padding=(1, 1))
              (1): ReLU()
            )
          )
          (1): RDB_Conv(
            (conv): Sequential(
              (0): Conv2d(96, 32, kernel_size=(3, 3), stride=(1, 1), padding=(1, 1))
              (1): ReLU()
            )
          )
          (2): RDB_Conv(
            (conv): Sequential(
              (0): Conv2d(128, 32, kernel_size=(3, 3), stride=(1, 1), padding=(1, 1))
              (1): ReLU()
            )
          )
          (3): RDB_Conv(
            (conv): Sequential(
              (0): Conv2d(160, 32, kernel_size=(3, 3), stride=(1, 1), padding=(1, 1))
              (1): ReLU()
            )
          )
          (4): RDB_Conv(
            (conv): Sequential(
              (0): Conv2d(192, 32, kernel_size=(3, 3), stride=(1, 1), padding=(1, 1))
              (1): ReLU()
            )
          )
          (5): RDB_Conv(
            (conv): Sequential(
              (0): Conv2d(224, 32, kernel_size=(3, 3), stride=(1, 1), padding=(1, 1))
              (1): ReLU()
            )
          )
          (6): RDB_Conv(
            (conv): Sequential(
              (0): Conv2d(256, 32, kernel_size=(3, 3), stride=(1, 1), padding=(1, 1))
              (1): ReLU()
            )
          )
          (7): RDB_Conv(
            (conv): Sequential(
              (0): Conv2d(288, 32, kernel_size=(3, 3), stride=(1, 1), padding=(1, 1))
              (1): ReLU()
            )
          )
        )
        (LFF): Conv2d(320, 64, kernel_size=(1, 1), stride=(1, 1))
      )
      (1): RDB(
        (convs): Sequential(
          (0): RDB_Conv(
            (conv): Sequential(
              (0): Conv2d(64, 32, kernel_size=(3, 3), stride=(1, 1), padding=(1, 1))
              (1): ReLU()
            )
          )
          (1): RDB_Conv(
            (conv): Sequential(
              (0): Conv2d(96, 32, kernel_size=(3, 3), stride=(1, 1), padding=(1, 1))
              (1): ReLU()
            )
          )
          (2): RDB_Conv(
            (conv): Sequential(
              (0): Conv2d(128, 32, kernel_size=(3, 3), stride=(1, 1), padding=(1, 1))
              (1): ReLU()
            )
          )
          (3): RDB_Conv(
            (conv): Sequential(
              (0): Conv2d(160, 32, kernel_size=(3, 3), stride=(1, 1), padding=(1, 1))
              (1): ReLU()
            )
          )
          (4): RDB_Conv(
            (conv): Sequential(
              (0): Conv2d(192, 32, kernel_size=(3, 3), stride=(1, 1), padding=(1, 1))
              (1): ReLU()
            )
          )
          (5): RDB_Conv(
            (conv): Sequential(
              (0): Conv2d(224, 32, kernel_size=(3, 3), stride=(1, 1), padding=(1, 1))
              (1): ReLU()
            )
          )
          (6): RDB_Conv(
            (conv): Sequential(
              (0): Conv2d(256, 32, kernel_size=(3, 3), stride=(1, 1), padding=(1, 1))
              (1): ReLU()
            )
          )
          (7): RDB_Conv(
            (conv): Sequential(
              (0): Conv2d(288, 32, kernel_size=(3, 3), stride=(1, 1), padding=(1, 1))
              (1): ReLU()
            )
          )
        )
        (LFF): Conv2d(320, 64, kernel_size=(1, 1), stride=(1, 1))
      )
      (2): RDB(
        (convs): Sequential(
          (0): RDB_Conv(
            (conv): Sequential(
              (0): Conv2d(64, 32, kernel_size=(3, 3), stride=(1, 1), padding=(1, 1))
              (1): ReLU()
            )
          )
          (1): RDB_Conv(
            (conv): Sequential(
              (0): Conv2d(96, 32, kernel_size=(3, 3), stride=(1, 1), padding=(1, 1))
              (1): ReLU()
            )
          )
          (2): RDB_Conv(
            (conv): Sequential(
              (0): Conv2d(128, 32, kernel_size=(3, 3), stride=(1, 1), padding=(1, 1))
              (1): ReLU()
            )
          )
          (3): RDB_Conv(
            (conv): Sequential(
              (0): Conv2d(160, 32, kernel_size=(3, 3), stride=(1, 1), padding=(1, 1))
              (1): ReLU()
            )
          )
          (4): RDB_Conv(
            (conv): Sequential(
              (0): Conv2d(192, 32, kernel_size=(3, 3), stride=(1, 1), padding=(1, 1))
              (1): ReLU()
            )
          )
          (5): RDB_Conv(
            (conv): Sequential(
              (0): Conv2d(224, 32, kernel_size=(3, 3), stride=(1, 1), padding=(1, 1))
              (1): ReLU()
            )
          )
          (6): RDB_Conv(
            (conv): Sequential(
              (0): Conv2d(256, 32, kernel_size=(3, 3), stride=(1, 1), padding=(1, 1))
              (1): ReLU()
            )
          )
          (7): RDB_Conv(
            (conv): Sequential(
              (0): Conv2d(288, 32, kernel_size=(3, 3), stride=(1, 1), padding=(1, 1))
              (1): ReLU()
            )
          )
        )
        (LFF): Conv2d(320, 64, kernel_size=(1, 1), stride=(1, 1))
      )
      (3): RDB(
        (convs): Sequential(
          (0): RDB_Conv(
            (conv): Sequential(
              (0): Conv2d(64, 32, kernel_size=(3, 3), stride=(1, 1), padding=(1, 1))
              (1): ReLU()
            )
          )
          (1): RDB_Conv(
            (conv): Sequential(
              (0): Conv2d(96, 32, kernel_size=(3, 3), stride=(1, 1), padding=(1, 1))
              (1): ReLU()
            )
          )
          (2): RDB_Conv(
            (conv): Sequential(
              (0): Conv2d(128, 32, kernel_size=(3, 3), stride=(1, 1), padding=(1, 1))
              (1): ReLU()
            )
          )
          (3): RDB_Conv(
            (conv): Sequential(
              (0): Conv2d(160, 32, kernel_size=(3, 3), stride=(1, 1), padding=(1, 1))
              (1): ReLU()
            )
          )
          (4): RDB_Conv(
            (conv): Sequential(
              (0): Conv2d(192, 32, kernel_size=(3, 3), stride=(1, 1), padding=(1, 1))
              (1): ReLU()
            )
          )
          (5): RDB_Conv(
            (conv): Sequential(
              (0): Conv2d(224, 32, kernel_size=(3, 3), stride=(1, 1), padding=(1, 1))
              (1): ReLU()
            )
          )
          (6): RDB_Conv(
            (conv): Sequential(
              (0): Conv2d(256, 32, kernel_size=(3, 3), stride=(1, 1), padding=(1, 1))
              (1): ReLU()
            )
          )
          (7): RDB_Conv(
            (conv): Sequential(
              (0): Conv2d(288, 32, kernel_size=(3, 3), stride=(1, 1), padding=(1, 1))
              (1): ReLU()
            )
          )
        )
        (LFF): Conv2d(320, 64, kernel_size=(1, 1), stride=(1, 1))
      )
      (4): RDB(
        (convs): Sequential(
          (0): RDB_Conv(
            (conv): Sequential(
              (0): Conv2d(64, 32, kernel_size=(3, 3), stride=(1, 1), padding=(1, 1))
              (1): ReLU()
            )
          )
          (1): RDB_Conv(
            (conv): Sequential(
              (0): Conv2d(96, 32, kernel_size=(3, 3), stride=(1, 1), padding=(1, 1))
              (1): ReLU()
            )
          )
          (2): RDB_Conv(
            (conv): Sequential(
              (0): Conv2d(128, 32, kernel_size=(3, 3), stride=(1, 1), padding=(1, 1))
              (1): ReLU()
            )
          )
          (3): RDB_Conv(
            (conv): Sequential(
              (0): Conv2d(160, 32, kernel_size=(3, 3), stride=(1, 1), padding=(1, 1))
              (1): ReLU()
            )
          )
          (4): RDB_Conv(
            (conv): Sequential(
              (0): Conv2d(192, 32, kernel_size=(3, 3), stride=(1, 1), padding=(1, 1))
              (1): ReLU()
            )
          )
          (5): RDB_Conv(
            (conv): Sequential(
              (0): Conv2d(224, 32, kernel_size=(3, 3), stride=(1, 1), padding=(1, 1))
              (1): ReLU()
            )
          )
          (6): RDB_Conv(
            (conv): Sequential(
              (0): Conv2d(256, 32, kernel_size=(3, 3), stride=(1, 1), padding=(1, 1))
              (1): ReLU()
            )
          )
          (7): RDB_Conv(
            (conv): Sequential(
              (0): Conv2d(288, 32, kernel_size=(3, 3), stride=(1, 1), padding=(1, 1))
              (1): ReLU()
            )
          )
        )
        (LFF): Conv2d(320, 64, kernel_size=(1, 1), stride=(1, 1))
      )
      (5): RDB(
        (convs): Sequential(
          (0): RDB_Conv(
            (conv): Sequential(
              (0): Conv2d(64, 32, kernel_size=(3, 3), stride=(1, 1), padding=(1, 1))
              (1): ReLU()
            )
          )
          (1): RDB_Conv(
            (conv): Sequential(
              (0): Conv2d(96, 32, kernel_size=(3, 3), stride=(1, 1), padding=(1, 1))
              (1): ReLU()
            )
          )
          (2): RDB_Conv(
            (conv): Sequential(
              (0): Conv2d(128, 32, kernel_size=(3, 3), stride=(1, 1), padding=(1, 1))
              (1): ReLU()
            )
          )
          (3): RDB_Conv(
            (conv): Sequential(
              (0): Conv2d(160, 32, kernel_size=(3, 3), stride=(1, 1), padding=(1, 1))
              (1): ReLU()
            )
          )
          (4): RDB_Conv(
            (conv): Sequential(
              (0): Conv2d(192, 32, kernel_size=(3, 3), stride=(1, 1), padding=(1, 1))
              (1): ReLU()
            )
          )
          (5): RDB_Conv(
            (conv): Sequential(
              (0): Conv2d(224, 32, kernel_size=(3, 3), stride=(1, 1), padding=(1, 1))
              (1): ReLU()
            )
          )
          (6): RDB_Conv(
            (conv): Sequential(
              (0): Conv2d(256, 32, kernel_size=(3, 3), stride=(1, 1), padding=(1, 1))
              (1): ReLU()
            )
          )
          (7): RDB_Conv(
            (conv): Sequential(
              (0): Conv2d(288, 32, kernel_size=(3, 3), stride=(1, 1), padding=(1, 1))
              (1): ReLU()
            )
          )
        )
        (LFF): Conv2d(320, 64, kernel_size=(1, 1), stride=(1, 1))
      )
    )
    (GFF): Sequential(
      (0): Conv2d(384, 64, kernel_size=(1, 1), stride=(1, 1))
      (1): Conv2d(64, 64, kernel_size=(3, 3), stride=(1, 1), padding=(1, 1))
    )
    (GW): GenWeights(
      (meta_block): Sequential(
        (0): Conv2d(1, 32, kernel_size=(3, 3), stride=(1, 1), padding=(1, 1))
        (1): ReLU(inplace=True)
        (2): Conv2d(32, 64, kernel_size=(3, 3), stride=(1, 1), padding=(1, 1))
        (3): ReLU(inplace=True)
        (4): Conv2d(64, 64, kernel_size=(3, 3), stride=(1, 1), padding=(1, 1))
        (5): ReLU(inplace=True)
        (6): Conv2d(64, 64, kernel_size=(3, 3), stride=(1, 1), padding=(1, 1))
        (7): ReLU(inplace=True)
        (8): Conv2d(64, 64, kernel_size=(3, 3), stride=(1, 1), padding=(1, 1))
      )
    )
    (RFN): FUSE_RDN(
      (SFENet1): Conv2d(2, 64, kernel_size=(3, 3), stride=(1, 1), padding=(1, 1))
      (SFENet2): Conv2d(64, 64, kernel_size=(3, 3), stride=(1, 1), padding=(1, 1))
      (RDBs): ModuleList(
        (0): RDB(
          (convs): Sequential(
            (0): RDB_Conv(
              (conv): Sequential(
                (0): Conv2d(64, 12, kernel_size=(3, 3), stride=(1, 1), padding=(1, 1))
                (1): ReLU()
              )
            )
            (1): RDB_Conv(
              (conv): Sequential(
                (0): Conv2d(76, 12, kernel_size=(3, 3), stride=(1, 1), padding=(1, 1))
                (1): ReLU()
              )
            )
            (2): RDB_Conv(
              (conv): Sequential(
                (0): Conv2d(88, 12, kernel_size=(3, 3), stride=(1, 1), padding=(1, 1))
                (1): ReLU()
              )
            )
            (3): RDB_Conv(
              (conv): Sequential(
                (0): Conv2d(100, 12, kernel_size=(3, 3), stride=(1, 1), padding=(1, 1))
                (1): ReLU()
              )
            )
            (4): RDB_Conv(
              (conv): Sequential(
                (0): Conv2d(112, 12, kernel_size=(3, 3), stride=(1, 1), padding=(1, 1))
                (1): ReLU()
              )
            )
            (5): RDB_Conv(
              (conv): Sequential(
                (0): Conv2d(124, 12, kernel_size=(3, 3), stride=(1, 1), padding=(1, 1))
                (1): ReLU()
              )
            )
          )
          (LFF): Conv2d(136, 64, kernel_size=(1, 1), stride=(1, 1))
        )
        (1): RDB(
          (convs): Sequential(
            (0): RDB_Conv(
              (conv): Sequential(
                (0): Conv2d(64, 12, kernel_size=(3, 3), stride=(1, 1), padding=(1, 1))
                (1): ReLU()
              )
            )
            (1): RDB_Conv(
              (conv): Sequential(
                (0): Conv2d(76, 12, kernel_size=(3, 3), stride=(1, 1), padding=(1, 1))
                (1): ReLU()
              )
            )
            (2): RDB_Conv(
              (conv): Sequential(
                (0): Conv2d(88, 12, kernel_size=(3, 3), stride=(1, 1), padding=(1, 1))
                (1): ReLU()
              )
            )
            (3): RDB_Conv(
              (conv): Sequential(
                (0): Conv2d(100, 12, kernel_size=(3, 3), stride=(1, 1), padding=(1, 1))
                (1): ReLU()
              )
            )
            (4): RDB_Conv(
              (conv): Sequential(
                (0): Conv2d(112, 12, kernel_size=(3, 3), stride=(1, 1), padding=(1, 1))
                (1): ReLU()
              )
            )
            (5): RDB_Conv(
              (conv): Sequential(
                (0): Conv2d(124, 12, kernel_size=(3, 3), stride=(1, 1), padding=(1, 1))
                (1): ReLU()
              )
            )
          )
          (LFF): Conv2d(136, 64, kernel_size=(1, 1), stride=(1, 1))
        )
        (2): RDB(
          (convs): Sequential(
            (0): RDB_Conv(
              (conv): Sequential(
                (0): Conv2d(64, 12, kernel_size=(3, 3), stride=(1, 1), padding=(1, 1))
                (1): ReLU()
              )
            )
            (1): RDB_Conv(
              (conv): Sequential(
                (0): Conv2d(76, 12, kernel_size=(3, 3), stride=(1, 1), padding=(1, 1))
                (1): ReLU()
              )
            )
            (2): RDB_Conv(
              (conv): Sequential(
                (0): Conv2d(88, 12, kernel_size=(3, 3), stride=(1, 1), padding=(1, 1))
                (1): ReLU()
              )
            )
            (3): RDB_Conv(
              (conv): Sequential(
                (0): Conv2d(100, 12, kernel_size=(3, 3), stride=(1, 1), padding=(1, 1))
                (1): ReLU()
              )
            )
            (4): RDB_Conv(
              (conv): Sequential(
                (0): Conv2d(112, 12, kernel_size=(3, 3), stride=(1, 1), padding=(1, 1))
                (1): ReLU()
              )
            )
            (5): RDB_Conv(
              (conv): Sequential(
                (0): Conv2d(124, 12, kernel_size=(3, 3), stride=(1, 1), padding=(1, 1))
                (1): ReLU()
              )
            )
          )
          (LFF): Conv2d(136, 64, kernel_size=(1, 1), stride=(1, 1))
        )
        (3): RDB(
          (convs): Sequential(
            (0): RDB_Conv(
              (conv): Sequential(
                (0): Conv2d(64, 12, kernel_size=(3, 3), stride=(1, 1), padding=(1, 1))
                (1): ReLU()
              )
            )
            (1): RDB_Conv(
              (conv): Sequential(
                (0): Conv2d(76, 12, kernel_size=(3, 3), stride=(1, 1), padding=(1, 1))
                (1): ReLU()
              )
            )
            (2): RDB_Conv(
              (conv): Sequential(
                (0): Conv2d(88, 12, kernel_size=(3, 3), stride=(1, 1), padding=(1, 1))
                (1): ReLU()
              )
            )
            (3): RDB_Conv(
              (conv): Sequential(
                (0): Conv2d(100, 12, kernel_size=(3, 3), stride=(1, 1), padding=(1, 1))
                (1): ReLU()
              )
            )
            (4): RDB_Conv(
              (conv): Sequential(
                (0): Conv2d(112, 12, kernel_size=(3, 3), stride=(1, 1), padding=(1, 1))
                (1): ReLU()
              )
            )
            (5): RDB_Conv(
              (conv): Sequential(
                (0): Conv2d(124, 12, kernel_size=(3, 3), stride=(1, 1), padding=(1, 1))
                (1): ReLU()
              )
            )
          )
          (LFF): Conv2d(136, 64, kernel_size=(1, 1), stride=(1, 1))
        )
      )
      (GFF): Sequential(
        (0): Conv2d(256, 64, kernel_size=(1, 1), stride=(1, 1))
        (1): Conv2d(64, 64, kernel_size=(3, 3), stride=(1, 1), padding=(1, 1))
      )
      (UPNet): Sequential(
        (0): Conv2d(64, 1, kernel_size=(3, 3), stride=(1, 1), padding=(1, 1))
      )
    )
  )
)
[Epoch 2]	Learning rate: 1.00e-4

Evaluation:
[TEST x5]	PSNR: 30.3778 SSIM: 0.8823 (Best: 30.3778 0.8823 @epoch 1)
Total time: 3591.14s

[Epoch 3]	Learning rate: 1.00e-4

Evaluation:
[Epoch 4]	Learning rate: 1.00e-4

Evaluation:
[Epoch 5]	Learning rate: 1.00e-4

Evaluation:
[Epoch 6]	Learning rate: 1.00e-4

Evaluation:
[Epoch 7]	Learning rate: 1.00e-4
…
[Epoch 61]	Learning rate: 1.00e-4

Evaluation:
[Epoch 62]	Learning rate: 1.00e-4

Evaluation:
[Epoch 63]	Learning rate: 1.00e-4

Evaluation:
[Epoch 64]	Learning rate: 1.00e-4

Evaluation:
[Epoch 65]	Learning rate: 1.00e-4

Evaluation:
[Epoch 66]	Learning rate: 1.00e-4

Evaluation:
[Epoch 67]	Learning rate: 1.00e-4

Evaluation:
[Epoch 68]	Learning rate: 1.00e-4

Evaluation:
[Epoch 69]	Learning rate: 1.00e-4

Evaluation:
[Epoch 70]	Learning rate: 1.00e-4

Evaluation:
[TEST x5]	PSNR: 37.1767 SSIM: 0.9427 (Best: 37.2625 0.9426 @epoch 59)
Total time: 3626.38s

DataParallel(
  (module): MSR_RDN(
    (SFENet1): Conv2d(3, 64, kernel_size=(3, 3), stride=(1, 1), padding=(1, 1))
    (SFENet2): Conv2d(64, 64, kernel_size=(3, 3), stride=(1, 1), padding=(1, 1))
    (RDBs): ModuleList(
      (0): RDB(
        (convs): Sequential(
          (0): RDB_Conv(
            (conv): Sequential(
              (0): Conv2d(64, 32, kernel_size=(3, 3), stride=(1, 1), padding=(1, 1))
              (1): ReLU()
            )
          )
          (1): RDB_Conv(
            (conv): Sequential(
              (0): Conv2d(96, 32, kernel_size=(3, 3), stride=(1, 1), padding=(1, 1))
              (1): ReLU()
            )
          )
          (2): RDB_Conv(
            (conv): Sequential(
              (0): Conv2d(128, 32, kernel_size=(3, 3), stride=(1, 1), padding=(1, 1))
              (1): ReLU()
            )
          )
          (3): RDB_Conv(
            (conv): Sequential(
              (0): Conv2d(160, 32, kernel_size=(3, 3), stride=(1, 1), padding=(1, 1))
              (1): ReLU()
            )
          )
          (4): RDB_Conv(
            (conv): Sequential(
              (0): Conv2d(192, 32, kernel_size=(3, 3), stride=(1, 1), padding=(1, 1))
              (1): ReLU()
            )
          )
          (5): RDB_Conv(
            (conv): Sequential(
              (0): Conv2d(224, 32, kernel_size=(3, 3), stride=(1, 1), padding=(1, 1))
              (1): ReLU()
            )
          )
          (6): RDB_Conv(
            (conv): Sequential(
              (0): Conv2d(256, 32, kernel_size=(3, 3), stride=(1, 1), padding=(1, 1))
              (1): ReLU()
            )
          )
          (7): RDB_Conv(
            (conv): Sequential(
              (0): Conv2d(288, 32, kernel_size=(3, 3), stride=(1, 1), padding=(1, 1))
              (1): ReLU()
            )
          )
        )
        (LFF): Conv2d(320, 64, kernel_size=(1, 1), stride=(1, 1))
      )
      (1): RDB(
        (convs): Sequential(
          (0): RDB_Conv(
            (conv): Sequential(
              (0): Conv2d(64, 32, kernel_size=(3, 3), stride=(1, 1), padding=(1, 1))
              (1): ReLU()
            )
          )
          (1): RDB_Conv(
            (conv): Sequential(
              (0): Conv2d(96, 32, kernel_size=(3, 3), stride=(1, 1), padding=(1, 1))
              (1): ReLU()
            )
          )
          (2): RDB_Conv(
            (conv): Sequential(
              (0): Conv2d(128, 32, kernel_size=(3, 3), stride=(1, 1), padding=(1, 1))
              (1): ReLU()
            )
          )
          (3): RDB_Conv(
            (conv): Sequential(
              (0): Conv2d(160, 32, kernel_size=(3, 3), stride=(1, 1), padding=(1, 1))
              (1): ReLU()
            )
          )
          (4): RDB_Conv(
            (conv): Sequential(
              (0): Conv2d(192, 32, kernel_size=(3, 3), stride=(1, 1), padding=(1, 1))
              (1): ReLU()
            )
          )
          (5): RDB_Conv(
            (conv): Sequential(
              (0): Conv2d(224, 32, kernel_size=(3, 3), stride=(1, 1), padding=(1, 1))
              (1): ReLU()
            )
          )
          (6): RDB_Conv(
            (conv): Sequential(
              (0): Conv2d(256, 32, kernel_size=(3, 3), stride=(1, 1), padding=(1, 1))
              (1): ReLU()
            )
          )
          (7): RDB_Conv(
            (conv): Sequential(
              (0): Conv2d(288, 32, kernel_size=(3, 3), stride=(1, 1), padding=(1, 1))
              (1): ReLU()
            )
          )
        )
        (LFF): Conv2d(320, 64, kernel_size=(1, 1), stride=(1, 1))
      )
      (2): RDB(
        (convs): Sequential(
          (0): RDB_Conv(
            (conv): Sequential(
              (0): Conv2d(64, 32, kernel_size=(3, 3), stride=(1, 1), padding=(1, 1))
              (1): ReLU()
            )
          )
          (1): RDB_Conv(
            (conv): Sequential(
              (0): Conv2d(96, 32, kernel_size=(3, 3), stride=(1, 1), padding=(1, 1))
              (1): ReLU()
            )
          )
          (2): RDB_Conv(
            (conv): Sequential(
              (0): Conv2d(128, 32, kernel_size=(3, 3), stride=(1, 1), padding=(1, 1))
              (1): ReLU()
            )
          )
          (3): RDB_Conv(
            (conv): Sequential(
              (0): Conv2d(160, 32, kernel_size=(3, 3), stride=(1, 1), padding=(1, 1))
              (1): ReLU()
            )
          )
          (4): RDB_Conv(
            (conv): Sequential(
              (0): Conv2d(192, 32, kernel_size=(3, 3), stride=(1, 1), padding=(1, 1))
              (1): ReLU()
            )
          )
          (5): RDB_Conv(
            (conv): Sequential(
              (0): Conv2d(224, 32, kernel_size=(3, 3), stride=(1, 1), padding=(1, 1))
              (1): ReLU()
            )
          )
          (6): RDB_Conv(
            (conv): Sequential(
              (0): Conv2d(256, 32, kernel_size=(3, 3), stride=(1, 1), padding=(1, 1))
              (1): ReLU()
            )
          )
          (7): RDB_Conv(
            (conv): Sequential(
              (0): Conv2d(288, 32, kernel_size=(3, 3), stride=(1, 1), padding=(1, 1))
              (1): ReLU()
            )
          )
        )
        (LFF): Conv2d(320, 64, kernel_size=(1, 1), stride=(1, 1))
      )
      (3): RDB(
        (convs): Sequential(
          (0): RDB_Conv(
            (conv): Sequential(
              (0): Conv2d(64, 32, kernel_size=(3, 3), stride=(1, 1), padding=(1, 1))
              (1): ReLU()
            )
          )
          (1): RDB_Conv(
            (conv): Sequential(
              (0): Conv2d(96, 32, kernel_size=(3, 3), stride=(1, 1), padding=(1, 1))
              (1): ReLU()
            )
          )
          (2): RDB_Conv(
            (conv): Sequential(
              (0): Conv2d(128, 32, kernel_size=(3, 3), stride=(1, 1), padding=(1, 1))
              (1): ReLU()
            )
          )
          (3): RDB_Conv(
            (conv): Sequential(
              (0): Conv2d(160, 32, kernel_size=(3, 3), stride=(1, 1), padding=(1, 1))
              (1): ReLU()
            )
          )
          (4): RDB_Conv(
            (conv): Sequential(
              (0): Conv2d(192, 32, kernel_size=(3, 3), stride=(1, 1), padding=(1, 1))
              (1): ReLU()
            )
          )
          (5): RDB_Conv(
            (conv): Sequential(
              (0): Conv2d(224, 32, kernel_size=(3, 3), stride=(1, 1), padding=(1, 1))
              (1): ReLU()
            )
          )
          (6): RDB_Conv(
            (conv): Sequential(
              (0): Conv2d(256, 32, kernel_size=(3, 3), stride=(1, 1), padding=(1, 1))
              (1): ReLU()
            )
          )
          (7): RDB_Conv(
            (conv): Sequential(
              (0): Conv2d(288, 32, kernel_size=(3, 3), stride=(1, 1), padding=(1, 1))
              (1): ReLU()
            )
          )
        )
        (LFF): Conv2d(320, 64, kernel_size=(1, 1), stride=(1, 1))
      )
      (4): RDB(
        (convs): Sequential(
          (0): RDB_Conv(
            (conv): Sequential(
              (0): Conv2d(64, 32, kernel_size=(3, 3), stride=(1, 1), padding=(1, 1))
              (1): ReLU()
            )
          )
          (1): RDB_Conv(
            (conv): Sequential(
              (0): Conv2d(96, 32, kernel_size=(3, 3), stride=(1, 1), padding=(1, 1))
              (1): ReLU()
            )
          )
          (2): RDB_Conv(
            (conv): Sequential(
              (0): Conv2d(128, 32, kernel_size=(3, 3), stride=(1, 1), padding=(1, 1))
              (1): ReLU()
            )
          )
          (3): RDB_Conv(
            (conv): Sequential(
              (0): Conv2d(160, 32, kernel_size=(3, 3), stride=(1, 1), padding=(1, 1))
              (1): ReLU()
            )
          )
          (4): RDB_Conv(
            (conv): Sequential(
              (0): Conv2d(192, 32, kernel_size=(3, 3), stride=(1, 1), padding=(1, 1))
              (1): ReLU()
            )
          )
          (5): RDB_Conv(
            (conv): Sequential(
              (0): Conv2d(224, 32, kernel_size=(3, 3), stride=(1, 1), padding=(1, 1))
              (1): ReLU()
            )
          )
          (6): RDB_Conv(
            (conv): Sequential(
              (0): Conv2d(256, 32, kernel_size=(3, 3), stride=(1, 1), padding=(1, 1))
              (1): ReLU()
            )
          )
          (7): RDB_Conv(
            (conv): Sequential(
              (0): Conv2d(288, 32, kernel_size=(3, 3), stride=(1, 1), padding=(1, 1))
              (1): ReLU()
            )
          )
        )
        (LFF): Conv2d(320, 64, kernel_size=(1, 1), stride=(1, 1))
      )
      (5): RDB(
        (convs): Sequential(
          (0): RDB_Conv(
            (conv): Sequential(
              (0): Conv2d(64, 32, kernel_size=(3, 3), stride=(1, 1), padding=(1, 1))
              (1): ReLU()
            )
          )
          (1): RDB_Conv(
            (conv): Sequential(
              (0): Conv2d(96, 32, kernel_size=(3, 3), stride=(1, 1), padding=(1, 1))
              (1): ReLU()
            )
          )
          (2): RDB_Conv(
            (conv): Sequential(
              (0): Conv2d(128, 32, kernel_size=(3, 3), stride=(1, 1), padding=(1, 1))
              (1): ReLU()
            )
          )
          (3): RDB_Conv(
            (conv): Sequential(
              (0): Conv2d(160, 32, kernel_size=(3, 3), stride=(1, 1), padding=(1, 1))
              (1): ReLU()
            )
          )
          (4): RDB_Conv(
            (conv): Sequential(
              (0): Conv2d(192, 32, kernel_size=(3, 3), stride=(1, 1), padding=(1, 1))
              (1): ReLU()
            )
          )
          (5): RDB_Conv(
            (conv): Sequential(
              (0): Conv2d(224, 32, kernel_size=(3, 3), stride=(1, 1), padding=(1, 1))
              (1): ReLU()
            )
          )
          (6): RDB_Conv(
            (conv): Sequential(
              (0): Conv2d(256, 32, kernel_size=(3, 3), stride=(1, 1), padding=(1, 1))
              (1): ReLU()
            )
          )
          (7): RDB_Conv(
            (conv): Sequential(
              (0): Conv2d(288, 32, kernel_size=(3, 3), stride=(1, 1), padding=(1, 1))
              (1): ReLU()
            )
          )
        )
        (LFF): Conv2d(320, 64, kernel_size=(1, 1), stride=(1, 1))
      )
    )
    (GFF): Sequential(
      (0): Conv2d(384, 64, kernel_size=(1, 1), stride=(1, 1))
      (1): Conv2d(64, 64, kernel_size=(3, 3), stride=(1, 1), padding=(1, 1))
    )
    (GW): GenWeights(
      (meta_block): Sequential(
        (0): Conv2d(1, 32, kernel_size=(3, 3), stride=(1, 1), padding=(1, 1))
        (1): ReLU(inplace=True)
        (2): Conv2d(32, 64, kernel_size=(3, 3), stride=(1, 1), padding=(1, 1))
        (3): ReLU(inplace=True)
        (4): Conv2d(64, 64, kernel_size=(3, 3), stride=(1, 1), padding=(1, 1))
        (5): ReLU(inplace=True)
        (6): Conv2d(64, 64, kernel_size=(3, 3), stride=(1, 1), padding=(1, 1))
        (7): ReLU(inplace=True)
        (8): Conv2d(64, 64, kernel_size=(3, 3), stride=(1, 1), padding=(1, 1))
      )
    )
    (RFN): FUSE_RDN(
      (SFENet1): Conv2d(2, 64, kernel_size=(3, 3), stride=(1, 1), padding=(1, 1))
      (SFENet2): Conv2d(64, 64, kernel_size=(3, 3), stride=(1, 1), padding=(1, 1))
      (RDBs): ModuleList(
        (0): RDB(
          (convs): Sequential(
            (0): RDB_Conv(
              (conv): Sequential(
                (0): Conv2d(64, 12, kernel_size=(3, 3), stride=(1, 1), padding=(1, 1))
                (1): ReLU()
              )
            )
            (1): RDB_Conv(
              (conv): Sequential(
                (0): Conv2d(76, 12, kernel_size=(3, 3), stride=(1, 1), padding=(1, 1))
                (1): ReLU()
              )
            )
            (2): RDB_Conv(
              (conv): Sequential(
                (0): Conv2d(88, 12, kernel_size=(3, 3), stride=(1, 1), padding=(1, 1))
                (1): ReLU()
              )
…
              (0): Conv2d(288, 32, kernel_size=(3, 3), stride=(1, 1), padding=(1, 1))
              (1): ReLU()
            )
          )
        )
        (LFF): Conv2d(320, 64, kernel_size=(1, 1), stride=(1, 1))
      )
      (1): RDB(
        (convs): Sequential(
          (0): RDB_Conv(
            (conv): Sequential(
              (0): Conv2d(64, 32, kernel_size=(3, 3), stride=(1, 1), padding=(1, 1))
              (1): ReLU()
            )
          )
          (1): RDB_Conv(
            (conv): Sequential(
              (0): Conv2d(96, 32, kernel_size=(3, 3), stride=(1, 1), padding=(1, 1))
              (1): ReLU()
            )
          )
          (2): RDB_Conv(
            (conv): Sequential(
              (0): Conv2d(128, 32, kernel_size=(3, 3), stride=(1, 1), padding=(1, 1))
              (1): ReLU()
            )
          )
          (3): RDB_Conv(
            (conv): Sequential(
              (0): Conv2d(160, 32, kernel_size=(3, 3), stride=(1, 1), padding=(1, 1))
              (1): ReLU()
            )
          )
          (4): RDB_Conv(
            (conv): Sequential(
              (0): Conv2d(192, 32, kernel_size=(3, 3), stride=(1, 1), padding=(1, 1))
              (1): ReLU()
            )
          )
          (5): RDB_Conv(
            (conv): Sequential(
              (0): Conv2d(224, 32, kernel_size=(3, 3), stride=(1, 1), padding=(1, 1))
              (1): ReLU()
            )
          )
          (6): RDB_Conv(
            (conv): Sequential(
              (0): Conv2d(256, 32, kernel_size=(3, 3), stride=(1, 1), padding=(1, 1))
              (1): ReLU()
            )
          )
          (7): RDB_Conv(
            (conv): Sequential(
              (0): Conv2d(288, 32, kernel_size=(3, 3), stride=(1, 1), padding=(1, 1))
              (1): ReLU()
            )
          )
        )
        (LFF): Conv2d(320, 64, kernel_size=(1, 1), stride=(1, 1))
      )
      (2): RDB(
        (convs): Sequential(
          (0): RDB_Conv(
            (conv): Sequential(
              (0): Conv2d(64, 32, kernel_size=(3, 3), stride=(1, 1), padding=(1, 1))
              (1): ReLU()
            )
          )
          (1): RDB_Conv(
            (conv): Sequential(
              (0): Conv2d(96, 32, kernel_size=(3, 3), stride=(1, 1), padding=(1, 1))
              (1): ReLU()
            )
          )
          (2): RDB_Conv(
            (conv): Sequential(
              (0): Conv2d(128, 32, kernel_size=(3, 3), stride=(1, 1), padding=(1, 1))
              (1): ReLU()
            )
          )
          (3): RDB_Conv(
            (conv): Sequential(
              (0): Conv2d(160, 32, kernel_size=(3, 3), stride=(1, 1), padding=(1, 1))
              (1): ReLU()
            )
          )
          (4): RDB_Conv(
            (conv): Sequential(
              (0): Conv2d(192, 32, kernel_size=(3, 3), stride=(1, 1), padding=(1, 1))
              (1): ReLU()
            )
          )
          (5): RDB_Conv(
            (conv): Sequential(
              (0): Conv2d(224, 32, kernel_size=(3, 3), stride=(1, 1), padding=(1, 1))
              (1): ReLU()
            )
          )
          (6): RDB_Conv(
            (conv): Sequential(
              (0): Conv2d(256, 32, kernel_size=(3, 3), stride=(1, 1), padding=(1, 1))
              (1): ReLU()
            )
          )
          (7): RDB_Conv(
            (conv): Sequential(
              (0): Conv2d(288, 32, kernel_size=(3, 3), stride=(1, 1), padding=(1, 1))
              (1): ReLU()
            )
          )
        )
        (LFF): Conv2d(320, 64, kernel_size=(1, 1), stride=(1, 1))
      )
      (3): RDB(
        (convs): Sequential(
          (0): RDB_Conv(
            (conv): Sequential(
              (0): Conv2d(64, 32, kernel_size=(3, 3), stride=(1, 1), padding=(1, 1))
              (1): ReLU()
            )
          )
          (1): RDB_Conv(
            (conv): Sequential(
              (0): Conv2d(96, 32, kernel_size=(3, 3), stride=(1, 1), padding=(1, 1))
              (1): ReLU()
            )
          )
          (2): RDB_Conv(
            (conv): Sequential(
              (0): Conv2d(128, 32, kernel_size=(3, 3), stride=(1, 1), padding=(1, 1))
              (1): ReLU()
            )
          )
          (3): RDB_Conv(
            (conv): Sequential(
              (0): Conv2d(160, 32, kernel_size=(3, 3), stride=(1, 1), padding=(1, 1))
              (1): ReLU()
            )
          )
          (4): RDB_Conv(
            (conv): Sequential(
              (0): Conv2d(192, 32, kernel_size=(3, 3), stride=(1, 1), padding=(1, 1))
              (1): ReLU()
            )
          )
          (5): RDB_Conv(
            (conv): Sequential(
              (0): Conv2d(224, 32, kernel_size=(3, 3), stride=(1, 1), padding=(1, 1))
              (1): ReLU()
            )
          )
          (6): RDB_Conv(
            (conv): Sequential(
              (0): Conv2d(256, 32, kernel_size=(3, 3), stride=(1, 1), padding=(1, 1))
              (1): ReLU()
            )
          )
          (7): RDB_Conv(
            (conv): Sequential(
              (0): Conv2d(288, 32, kernel_size=(3, 3), stride=(1, 1), padding=(1, 1))
              (1): ReLU()
            )
          )
        )
        (LFF): Conv2d(320, 64, kernel_size=(1, 1), stride=(1, 1))
      )
      (4): RDB(
        (convs): Sequential(
          (0): RDB_Conv(
            (conv): Sequential(
              (0): Conv2d(64, 32, kernel_size=(3, 3), stride=(1, 1), padding=(1, 1))
              (1): ReLU()
            )
          )
          (1): RDB_Conv(
            (conv): Sequential(
              (0): Conv2d(96, 32, kernel_size=(3, 3), stride=(1, 1), padding=(1, 1))
              (1): ReLU()
            )
          )
          (2): RDB_Conv(
            (conv): Sequential(
              (0): Conv2d(128, 32, kernel_size=(3, 3), stride=(1, 1), padding=(1, 1))
              (1): ReLU()
            )
          )
          (3): RDB_Conv(
            (conv): Sequential(
              (0): Conv2d(160, 32, kernel_size=(3, 3), stride=(1, 1), padding=(1, 1))
              (1): ReLU()
            )
          )
          (4): RDB_Conv(
            (conv): Sequential(
              (0): Conv2d(192, 32, kernel_size=(3, 3), stride=(1, 1), padding=(1, 1))
              (1): ReLU()
            )
          )
          (5): RDB_Conv(
            (conv): Sequential(
              (0): Conv2d(224, 32, kernel_size=(3, 3), stride=(1, 1), padding=(1, 1))
              (1): ReLU()
            )
          )
          (6): RDB_Conv(
            (conv): Sequential(
              (0): Conv2d(256, 32, kernel_size=(3, 3), stride=(1, 1), padding=(1, 1))
              (1): ReLU()
            )
          )
          (7): RDB_Conv(
            (conv): Sequential(
              (0): Conv2d(288, 32, kernel_size=(3, 3), stride=(1, 1), padding=(1, 1))
              (1): ReLU()
            )
          )
        )
        (LFF): Conv2d(320, 64, kernel_size=(1, 1), stride=(1, 1))
      )
      (5): RDB(
        (convs): Sequential(
          (0): RDB_Conv(
            (conv): Sequential(
              (0): Conv2d(64, 32, kernel_size=(3, 3), stride=(1, 1), padding=(1, 1))
              (1): ReLU()
            )
          )
          (1): RDB_Conv(
            (conv): Sequential(
              (0): Conv2d(96, 32, kernel_size=(3, 3), stride=(1, 1), padding=(1, 1))
              (1): ReLU()
            )
          )
          (2): RDB_Conv(
            (conv): Sequential(
              (0): Conv2d(128, 32, kernel_size=(3, 3), stride=(1, 1), padding=(1, 1))
              (1): ReLU()
            )
          )
          (3): RDB_Conv(
            (conv): Sequential(
              (0): Conv2d(160, 32, kernel_size=(3, 3), stride=(1, 1), padding=(1, 1))
              (1): ReLU()
            )
          )
          (4): RDB_Conv(
            (conv): Sequential(
              (0): Conv2d(192, 32, kernel_size=(3, 3), stride=(1, 1), padding=(1, 1))
              (1): ReLU()
            )
          )
          (5): RDB_Conv(
            (conv): Sequential(
              (0): Conv2d(224, 32, kernel_size=(3, 3), stride=(1, 1), padding=(1, 1))
              (1): ReLU()
            )
          )
          (6): RDB_Conv(
            (conv): Sequential(
              (0): Conv2d(256, 32, kernel_size=(3, 3), stride=(1, 1), padding=(1, 1))
              (1): ReLU()
            )
          )
          (7): RDB_Conv(
            (conv): Sequential(
              (0): Conv2d(288, 32, kernel_size=(3, 3), stride=(1, 1), padding=(1, 1))
              (1): ReLU()
            )
          )
        )
        (LFF): Conv2d(320, 64, kernel_size=(1, 1), stride=(1, 1))
      )
    )
    (GFF): Sequential(
      (0): Conv2d(384, 64, kernel_size=(1, 1), stride=(1, 1))
      (1): Conv2d(64, 64, kernel_size=(3, 3), stride=(1, 1), padding=(1, 1))
    )
    (GW): GenWeights(
      (meta_block): Sequential(
        (0): Conv2d(1, 32, kernel_size=(3, 3), stride=(1, 1), padding=(1, 1))
        (1): ReLU(inplace=True)
        (2): Conv2d(32, 64, kernel_size=(3, 3), stride=(1, 1), padding=(1, 1))
        (3): ReLU(inplace=True)
        (4): Conv2d(64, 64, kernel_size=(3, 3), stride=(1, 1), padding=(1, 1))
        (5): ReLU(inplace=True)
        (6): Conv2d(64, 64, kernel_size=(3, 3), stride=(1, 1), padding=(1, 1))
        (7): ReLU(inplace=True)
        (8): Conv2d(64, 64, kernel_size=(3, 3), stride=(1, 1), padding=(1, 1))
      )
    )
    (RFN): FUSE_RDN(
      (SFENet1): Conv2d(2, 64, kernel_size=(3, 3), stride=(1, 1), padding=(1, 1))
      (SFENet2): Conv2d(64, 64, kernel_size=(3, 3), stride=(1, 1), padding=(1, 1))
      (RDBs): ModuleList(
        (0): RDB(
          (convs): Sequential(
            (0): RDB_Conv(
              (conv): Sequential(
                (0): Conv2d(64, 12, kernel_size=(3, 3), stride=(1, 1), padding=(1, 1))
                (1): ReLU()
              )
            )
            (1): RDB_Conv(
              (conv): Sequential(
                (0): Conv2d(76, 12, kernel_size=(3, 3), stride=(1, 1), padding=(1, 1))
                (1): ReLU()
              )
            )
            (2): RDB_Conv(
              (conv): Sequential(
                (0): Conv2d(88, 12, kernel_size=(3, 3), stride=(1, 1), padding=(1, 1))
                (1): ReLU()
              )
            )
            (3): RDB_Conv(
              (conv): Sequential(
                (0): Conv2d(100, 12, kernel_size=(3, 3), stride=(1, 1), padding=(1, 1))
                (1): ReLU()
              )
            )
            (4): RDB_Conv(
              (conv): Sequential(
                (0): Conv2d(112, 12, kernel_size=(3, 3), stride=(1, 1), padding=(1, 1))
                (1): ReLU()
              )
            )
            (5): RDB_Conv(
              (conv): Sequential(
                (0): Conv2d(124, 12, kernel_size=(3, 3), stride=(1, 1), padding=(1, 1))
                (1): ReLU()
              )
            )
          )
          (LFF): Conv2d(136, 64, kernel_size=(1, 1), stride=(1, 1))
        )
        (1): RDB(
          (convs): Sequential(
            (0): RDB_Conv(
              (conv): Sequential(
                (0): Conv2d(64, 12, kernel_size=(3, 3), stride=(1, 1), padding=(1, 1))
                (1): ReLU()
              )
            )
            (1): RDB_Conv(
              (conv): Sequential(
                (0): Conv2d(76, 12, kernel_size=(3, 3), stride=(1, 1), padding=(1, 1))
                (1): ReLU()
              )
            )
            (2): RDB_Conv(
              (conv): Sequential(
                (0): Conv2d(88, 12, kernel_size=(3, 3), stride=(1, 1), padding=(1, 1))
                (1): ReLU()
              )
            )
            (3): RDB_Conv(
              (conv): Sequential(
                (0): Conv2d(100, 12, kernel_size=(3, 3), stride=(1, 1), padding=(1, 1))
                (1): ReLU()
              )
            )
            (4): RDB_Conv(
              (conv): Sequential(
                (0): Conv2d(112, 12, kernel_size=(3, 3), stride=(1, 1), padding=(1, 1))
                (1): ReLU()
              )
            )
            (5): RDB_Conv(
              (conv): Sequential(
                (0): Conv2d(124, 12, kernel_size=(3, 3), stride=(1, 1), padding=(1, 1))
                (1): ReLU()
              )
            )
          )
          (LFF): Conv2d(136, 64, kernel_size=(1, 1), stride=(1, 1))
        )
        (2): RDB(
          (convs): Sequential(
            (0): RDB_Conv(
              (conv): Sequential(
                (0): Conv2d(64, 12, kernel_size=(3, 3), stride=(1, 1), padding=(1, 1))
                (1): ReLU()
              )
            )
            (1): RDB_Conv(
              (conv): Sequential(
                (0): Conv2d(76, 12, kernel_size=(3, 3), stride=(1, 1), padding=(1, 1))
                (1): ReLU()
              )
            )
            (2): RDB_Conv(
              (conv): Sequential(
                (0): Conv2d(88, 12, kernel_size=(3, 3), stride=(1, 1), padding=(1, 1))
                (1): ReLU()
              )
            )
            (3): RDB_Conv(
              (conv): Sequential(
                (0): Conv2d(100, 12, kernel_size=(3, 3), stride=(1, 1), padding=(1, 1))
                (1): ReLU()
              )
            )
            (4): RDB_Conv(
              (conv): Sequential(
                (0): Conv2d(112, 12, kernel_size=(3, 3), stride=(1, 1), padding=(1, 1))
                (1): ReLU()
              )
            )
            (5): RDB_Conv(
              (conv): Sequential(
                (0): Conv2d(124, 12, kernel_size=(3, 3), stride=(1, 1), padding=(1, 1))
                (1): ReLU()
              )
            )
          )
          (LFF): Conv2d(136, 64, kernel_size=(1, 1), stride=(1, 1))
        )
        (3): RDB(
          (convs): Sequential(
            (0): RDB_Conv(
              (conv): Sequential(
                (0): Conv2d(64, 12, kernel_size=(3, 3), stride=(1, 1), padding=(1, 1))
                (1): ReLU()
              )
            )
            (1): RDB_Conv(
              (conv): Sequential(
                (0): Conv2d(76, 12, kernel_size=(3, 3), stride=(1, 1), padding=(1, 1))
                (1): ReLU()
              )
            )
            (2): RDB_Conv(
              (conv): Sequential(
                (0): Conv2d(88, 12, kernel_size=(3, 3), stride=(1, 1), padding=(1, 1))
                (1): ReLU()
              )
            )
            (3): RDB_Conv(
              (conv): Sequential(
                (0): Conv2d(100, 12, kernel_size=(3, 3), stride=(1, 1), padding=(1, 1))
                (1): ReLU()
              )
            )
            (4): RDB_Conv(
              (conv): Sequential(
                (0): Conv2d(112, 12, kernel_size=(3, 3), stride=(1, 1), padding=(1, 1))
                (1): ReLU()
              )
            )
            (5): RDB_Conv(
              (conv): Sequential(
                (0): Conv2d(124, 12, kernel_size=(3, 3), stride=(1, 1), padding=(1, 1))
                (1): ReLU()
              )
            )
          )
          (LFF): Conv2d(136, 64, kernel_size=(1, 1), stride=(1, 1))
        )
      )
      (GFF): Sequential(
        (0): Conv2d(256, 64, kernel_size=(1, 1), stride=(1, 1))
        (1): Conv2d(64, 64, kernel_size=(3, 3), stride=(1, 1), padding=(1, 1))
      )
      (UPNet): Sequential(
        (0): Conv2d(64, 1, kernel_size=(3, 3), stride=(1, 1), padding=(1, 1))
      )
    )
  )
)DataParallel(
  (module): MSR_RDN(
    (SFENet1): Conv2d(3, 64, kernel_size=(3, 3), stride=(1, 1), padding=(1, 1))
    (SFENet2): Conv2d(64, 64, kernel_size=(3, 3), stride=(1, 1), padding=(1, 1))
    (RDBs): ModuleList(
      (0): RDB(
        (convs): Sequential(
          (0): RDB_Conv(
            (conv): Sequential(
              (0): Conv2d(64, 32, kernel_size=(3, 3), stride=(1, 1), padding=(1, 1))
              (1): ReLU()
            )
          )
          (1): RDB_Conv(
            (conv): Sequential(
              (0): Conv2d(96, 32, kernel_size=(3, 3), stride=(1, 1), padding=(1, 1))
              (1): ReLU()
            )
          )
          (2): RDB_Conv(
            (conv): Sequential(
              (0): Conv2d(128, 32, kernel_size=(3, 3), stride=(1, 1), padding=(1, 1))
              (1): ReLU()
            )
          )
          (3): RDB_Conv(
            (conv): Sequential(
              (0): Conv2d(160, 32, kernel_size=(3, 3), stride=(1, 1), padding=(1, 1))
              (1): ReLU()
            )
          )
          (4): RDB_Conv(
            (conv): Sequential(
              (0): Conv2d(192, 32, kernel_size=(3, 3), stride=(1, 1), padding=(1, 1))
              (1): ReLU()
            )
          )
          (5): RDB_Conv(
            (conv): Sequential(
              (0): Conv2d(224, 32, kernel_size=(3, 3), stride=(1, 1), padding=(1, 1))
              (1): ReLU()
            )
          )
          (6): RDB_Conv(
            (conv): Sequential(
              (0): Conv2d(256, 32, kernel_size=(3, 3), stride=(1, 1), padding=(1, 1))
              (1): ReLU()
            )
          )
          (7): RDB_Conv(
            (conv): Sequential(
              (0): Conv2d(288, 32, kernel_size=(3, 3), stride=(1, 1), padding=(1, 1))
              (1): ReLU()
            )
          )
        )
        (LFF): Conv2d(320, 64, kernel_size=(1, 1), stride=(1, 1))
      )
      (1): RDB(
        (convs): Sequential(
          (0): RDB_Conv(
            (conv): Sequential(
              (0): Conv2d(64, 32, kernel_size=(3, 3), stride=(1, 1), padding=(1, 1))
              (1): ReLU()
            )
          )
          (1): RDB_Conv(
            (conv): Sequential(
              (0): Conv2d(96, 32, kernel_size=(3, 3), stride=(1, 1), padding=(1, 1))
              (1): ReLU()
            )
          )
          (2): RDB_Conv(
            (conv): Sequential(
              (0): Conv2d(128, 32, kernel_size=(3, 3), stride=(1, 1), padding=(1, 1))
              (1): ReLU()
            )
          )
          (3): RDB_Conv(
            (conv): Sequential(
              (0): Conv2d(160, 32, kernel_size=(3, 3), stride=(1, 1), padding=(1, 1))
              (1): ReLU()
            )
          )
          (4): RDB_Conv(
            (conv): Sequential(
              (0): Conv2d(192, 32, kernel_size=(3, 3), stride=(1, 1), padding=(1, 1))
              (1): ReLU()
            )
          )
          (5): RDB_Conv(
            (conv): Sequential(
              (0): Conv2d(224, 32, kernel_size=(3, 3), stride=(1, 1), padding=(1, 1))
              (1): ReLU()
            )
          )
          (6): RDB_Conv(
            (conv): Sequential(
              (0): Conv2d(256, 32, kernel_size=(3, 3), stride=(1, 1), padding=(1, 1))
              (1): ReLU()
            )
          )
          (7): RDB_Conv(
            (conv): Sequential(
              (0): Conv2d(288, 32, kernel_size=(3, 3), stride=(1, 1), padding=(1, 1))
              (1): ReLU()
            )
          )
        )
        (LFF): Conv2d(320, 64, kernel_size=(1, 1), stride=(1, 1))
      )
      (2): RDB(
        (convs): Sequential(
          (0): RDB_Conv(
            (conv): Sequential(
              (0): Conv2d(64, 32, kernel_size=(3, 3), stride=(1, 1), padding=(1, 1))
              (1): ReLU()
            )
          )
          (1): RDB_Conv(
            (conv): Sequential(
              (0): Conv2d(96, 32, kernel_size=(3, 3), stride=(1, 1), padding=(1, 1))
              (1): ReLU()
            )
          )
          (2): RDB_Conv(
            (conv): Sequential(
              (0): Conv2d(128, 32, kernel_size=(3, 3), stride=(1, 1), padding=(1, 1))
              (1): ReLU()
            )
          )
          (3): RDB_Conv(
            (conv): Sequential(
              (0): Conv2d(160, 32, kernel_size=(3, 3), stride=(1, 1), padding=(1, 1))
              (1): ReLU()
            )
          )
          (4): RDB_Conv(
            (conv): Sequential(
              (0): Conv2d(192, 32, kernel_size=(3, 3), stride=(1, 1), padding=(1, 1))
              (1): ReLU()
            )
          )
          (5): RDB_Conv(
            (conv): Sequential(
              (0): Conv2d(224, 32, kernel_size=(3, 3), stride=(1, 1), padding=(1, 1))
              (1): ReLU()
            )
          )
          (6): RDB_Conv(
            (conv): Sequential(
              (0): Conv2d(256, 32, kernel_size=(3, 3), stride=(1, 1), padding=(1, 1))
              (1): ReLU()
            )
          )
          (7): RDB_Conv(
            (conv): Sequential(
              (0): Conv2d(288, 32, kernel_size=(3, 3), stride=(1, 1), padding=(1, 1))
              (1): ReLU()
            )
          )
        )
        (LFF): Conv2d(320, 64, kernel_size=(1, 1), stride=(1, 1))
      )
      (3): RDB(
        (convs): Sequential(
          (0): RDB_Conv(
            (conv): Sequential(
              (0): Conv2d(64, 32, kernel_size=(3, 3), stride=(1, 1), padding=(1, 1))
              (1): ReLU()
            )
          )
          (1): RDB_Conv(
            (conv): Sequential(
              (0): Conv2d(96, 32, kernel_size=(3, 3), stride=(1, 1), padding=(1, 1))
              (1): ReLU()
            )
          )
          (2): RDB_Conv(
            (conv): Sequential(
              (0): Conv2d(128, 32, kernel_size=(3, 3), stride=(1, 1), padding=(1, 1))
              (1): ReLU()
            )
          )
          (3): RDB_Conv(
            (conv): Sequential(
              (0): Conv2d(160, 32, kernel_size=(3, 3), stride=(1, 1), padding=(1, 1))
              (1): ReLU()
            )
          )
          (4): RDB_Conv(
            (conv): Sequential(
              (0): Conv2d(192, 32, kernel_size=(3, 3), stride=(1, 1), padding=(1, 1))
              (1): ReLU()
            )
          )
          (5): RDB_Conv(
            (conv): Sequential(
              (0): Conv2d(224, 32, kernel_size=(3, 3), stride=(1, 1), padding=(1, 1))
              (1): ReLU()
            )
          )
          (6): RDB_Conv(
            (conv): Sequential(
              (0): Conv2d(256, 32, kernel_size=(3, 3), stride=(1, 1), padding=(1, 1))
              (1): ReLU()
            )
          )
          (7): RDB_Conv(
            (conv): Sequential(
              (0): Conv2d(288, 32, kernel_size=(3, 3), stride=(1, 1), padding=(1, 1))
              (1): ReLU()
            )
          )
        )
        (LFF): Conv2d(320, 64, kernel_size=(1, 1), stride=(1, 1))
      )
      (4): RDB(
        (convs): Sequential(
          (0): RDB_Conv(
            (conv): Sequential(
              (0): Conv2d(64, 32, kernel_size=(3, 3), stride=(1, 1), padding=(1, 1))
              (1): ReLU()
            )
          )
          (1): RDB_Conv(
            (conv): Sequential(
              (0): Conv2d(96, 32, kernel_size=(3, 3), stride=(1, 1), padding=(1, 1))
              (1): ReLU()
            )
          )
          (2): RDB_Conv(
            (conv): Sequential(
              (0): Conv2d(128, 32, kernel_size=(3, 3), stride=(1, 1), padding=(1, 1))
              (1): ReLU()
            )
          )
          (3): RDB_Conv(
            (conv): Sequential(
              (0): Conv2d(160, 32, kernel_size=(3, 3), stride=(1, 1), padding=(1, 1))
              (1): ReLU()
            )
          )
          (4): RDB_Conv(
            (conv): Sequential(
              (0): Conv2d(192, 32, kernel_size=(3, 3), stride=(1, 1), padding=(1, 1))
              (1): ReLU()
            )
          )
          (5): RDB_Conv(
            (conv): Sequential(
              (0): Conv2d(224, 32, kernel_size=(3, 3), stride=(1, 1), padding=(1, 1))
              (1): ReLU()
            )
          )
          (6): RDB_Conv(
            (conv): Sequential(
              (0): Conv2d(256, 32, kernel_size=(3, 3), stride=(1, 1), padding=(1, 1))
              (1): ReLU()
            )
          )
          (7): RDB_Conv(
            (conv): Sequential(
              (0): Conv2d(288, 32, kernel_size=(3, 3), stride=(1, 1), padding=(1, 1))
              (1): ReLU()
            )
          )
        )
        (LFF): Conv2d(320, 64, kernel_size=(1, 1), stride=(1, 1))
      )
      (5): RDB(
        (convs): Sequential(
          (0): RDB_Conv(
            (conv): Sequential(
              (0): Conv2d(64, 32, kernel_size=(3, 3), stride=(1, 1), padding=(1, 1))
              (1): ReLU()
            )
          )
          (1): RDB_Conv(
            (conv): Sequential(
              (0): Conv2d(96, 32, kernel_size=(3, 3), stride=(1, 1), padding=(1, 1))
              (1): ReLU()
            )
          )
          (2): RDB_Conv(
            (conv): Sequential(
              (0): Conv2d(128, 32, kernel_size=(3, 3), stride=(1, 1), padding=(1, 1))
              (1): ReLU()
            )
          )
          (3): RDB_Conv(
            (conv): Sequential(
              (0): Conv2d(160, 32, kernel_size=(3, 3), stride=(1, 1), padding=(1, 1))
              (1): ReLU()
            )
          )
          (4): RDB_Conv(
            (conv): Sequential(
              (0): Conv2d(192, 32, kernel_size=(3, 3), stride=(1, 1), padding=(1, 1))
              (1): ReLU()
            )
          )
          (5): RDB_Conv(
            (conv): Sequential(
              (0): Conv2d(224, 32, kernel_size=(3, 3), stride=(1, 1), padding=(1, 1))
              (1): ReLU()
            )
          )
          (6): RDB_Conv(
            (conv): Sequential(
              (0): Conv2d(256, 32, kernel_size=(3, 3), stride=(1, 1), padding=(1, 1))
              (1): ReLU()
            )
          )
          (7): RDB_Conv(
            (conv): Sequential(
              (0): Conv2d(288, 32, kernel_size=(3, 3), stride=(1, 1), padding=(1, 1))
              (1): ReLU()
            )
          )
        )
        (LFF): Conv2d(320, 64, kernel_size=(1, 1), stride=(1, 1))
      )
    )
    (GFF): Sequential(
      (0): Conv2d(384, 64, kernel_size=(1, 1), stride=(1, 1))
      (1): Conv2d(64, 64, kernel_size=(3, 3), stride=(1, 1), padding=(1, 1))
    )
    (GW): GenWeights(
      (meta_block): Sequential(
        (0): Conv2d(1, 32, kernel_size=(3, 3), stride=(1, 1), padding=(1, 1))
        (1): ReLU(inplace=True)
        (2): Conv2d(32, 64, kernel_size=(3, 3), stride=(1, 1), padding=(1, 1))
        (3): ReLU(inplace=True)
        (4): Conv2d(64, 64, kernel_size=(3, 3), stride=(1, 1), padding=(1, 1))
        (5): ReLU(inplace=True)
        (6): Conv2d(64, 64, kernel_size=(3, 3), stride=(1, 1), padding=(1, 1))
        (7): ReLU(inplace=True)
        (8): Conv2d(64, 64, kernel_size=(3, 3), stride=(1, 1), padding=(1, 1))
      )
    )
    (RFN): FUSE_RDN(
      (SFENet1): Conv2d(2, 64, kernel_size=(3, 3), stride=(1, 1), padding=(1, 1))
      (SFENet2): Conv2d(64, 64, kernel_size=(3, 3), stride=(1, 1), padding=(1, 1))
      (RDBs): ModuleList(
        (0): RDB(
          (convs): Sequential(
            (0): RDB_Conv(
              (conv): Sequential(
                (0): Conv2d(64, 12, kernel_size=(3, 3), stride=(1, 1), padding=(1, 1))
                (1): ReLU()
              )
            )
            (1): RDB_Conv(
              (conv): Sequential(
                (0): Conv2d(76, 12, kernel_size=(3, 3), stride=(1, 1), padding=(1, 1))
                (1): ReLU()
              )
            )
            (2): RDB_Conv(
              (conv): Sequential(
                (0): Conv2d(88, 12, kernel_size=(3, 3), stride=(1, 1), padding=(1, 1))
                (1): ReLU()
              )
            )
            (3): RDB_Conv(
              (conv): Sequential(
                (0): Conv2d(100, 12, kernel_size=(3, 3), stride=(1, 1), padding=(1, 1))
                (1): ReLU()
              )
            )
            (4): RDB_Conv(
              (conv): Sequential(
                (0): Conv2d(112, 12, kernel_size=(3, 3), stride=(1, 1), padding=(1, 1))
                (1): ReLU()
              )
            )
            (5): RDB_Conv(
              (conv): Sequential(
                (0): Conv2d(124, 12, kernel_size=(3, 3), stride=(1, 1), padding=(1, 1))
                (1): ReLU()
              )
            )
          )
          (LFF): Conv2d(136, 64, kernel_size=(1, 1), stride=(1, 1))
        )
        (1): RDB(
          (convs): Sequential(
            (0): RDB_Conv(
              (conv): Sequential(
                (0): Conv2d(64, 12, kernel_size=(3, 3), stride=(1, 1), padding=(1, 1))
                (1): ReLU()
              )
            )
            (1): RDB_Conv(
              (conv): Sequential(
                (0): Conv2d(76, 12, kernel_size=(3, 3), stride=(1, 1), padding=(1, 1))
                (1): ReLU()
              )
            )
            (2): RDB_Conv(
              (conv): Sequential(
                (0): Conv2d(88, 12, kernel_size=(3, 3), stride=(1, 1), padding=(1, 1))
                (1): ReLU()
              )
            )
            (3): RDB_Conv(
              (conv): Sequential(
                (0): Conv2d(100, 12, kernel_size=(3, 3), stride=(1, 1), padding=(1, 1))
                (1): ReLU()
              )
            )
            (4): RDB_Conv(
              (conv): Sequential(
                (0): Conv2d(112, 12, kernel_size=(3, 3), stride=(1, 1), padding=(1, 1))
                (1): ReLU()
              )
            )
            (5): RDB_Conv(
              (conv): Sequential(
                (0): Conv2d(124, 12, kernel_size=(3, 3), stride=(1, 1), padding=(1, 1))
                (1): ReLU()
              )
            )
          )
          (LFF): Conv2d(136, 64, kernel_size=(1, 1), stride=(1, 1))
        )
        (2): RDB(
          (convs): Sequential(
            (0): RDB_Conv(
              (conv): Sequential(
                (0): Conv2d(64, 12, kernel_size=(3, 3), stride=(1, 1), padding=(1, 1))
                (1): ReLU()
              )
            )
            (1): RDB_Conv(
              (conv): Sequential(
                (0): Conv2d(76, 12, kernel_size=(3, 3), stride=(1, 1), padding=(1, 1))
                (1): ReLU()
              )
            )
            (2): RDB_Conv(
              (conv): Sequential(
                (0): Conv2d(88, 12, kernel_size=(3, 3), stride=(1, 1), padding=(1, 1))
                (1): ReLU()
              )
            )
            (3): RDB_Conv(
              (conv): Sequential(
                (0): Conv2d(100, 12, kernel_size=(3, 3), stride=(1, 1), padding=(1, 1))
                (1): ReLU()
              )
            )
            (4): RDB_Conv(
              (conv): Sequential(
                (0): Conv2d(112, 12, kernel_size=(3, 3), stride=(1, 1), padding=(1, 1))
                (1): ReLU()
              )
            )
            (5): RDB_Conv(
              (conv): Sequential(
                (0): Conv2d(124, 12, kernel_size=(3, 3), stride=(1, 1), padding=(1, 1))
                (1): ReLU()
              )
            )
          )
          (LFF): Conv2d(136, 64, kernel_size=(1, 1), stride=(1, 1))
        )
        (3): RDB(
          (convs): Sequential(
            (0): RDB_Conv(
              (conv): Sequential(
                (0): Conv2d(64, 12, kernel_size=(3, 3), stride=(1, 1), padding=(1, 1))
                (1): ReLU()
              )
            )
            (1): RDB_Conv(
              (conv): Sequential(
                (0): Conv2d(76, 12, kernel_size=(3, 3), stride=(1, 1), padding=(1, 1))
                (1): ReLU()
              )
            )
            (2): RDB_Conv(
              (conv): Sequential(
                (0): Conv2d(88, 12, kernel_size=(3, 3), stride=(1, 1), padding=(1, 1))
                (1): ReLU()
              )
            )
            (3): RDB_Conv(
              (conv): Sequential(
                (0): Conv2d(100, 12, kernel_size=(3, 3), stride=(1, 1), padding=(1, 1))
                (1): ReLU()
              )
            )
            (4): RDB_Conv(
              (conv): Sequential(
                (0): Conv2d(112, 12, kernel_size=(3, 3), stride=(1, 1), padding=(1, 1))
                (1): ReLU()
              )
            )
            (5): RDB_Conv(
              (conv): Sequential(
                (0): Conv2d(124, 12, kernel_size=(3, 3), stride=(1, 1), padding=(1, 1))
                (1): ReLU()
              )
            )
          )
          (LFF): Conv2d(136, 64, kernel_size=(1, 1), stride=(1, 1))
        )
      )
      (GFF): Sequential(
        (0): Conv2d(256, 64, kernel_size=(1, 1), stride=(1, 1))
        (1): Conv2d(64, 64, kernel_size=(3, 3), stride=(1, 1), padding=(1, 1))
      )
      (UPNet): Sequential(
        (0): Conv2d(64, 1, kernel_size=(3, 3), stride=(1, 1), padding=(1, 1))
      )
    )
  )
)DataParallel(
  (module): MSR_RDN(
    (SFENet1): Conv2d(3, 64, kernel_size=(3, 3), stride=(1, 1), padding=(1, 1))
    (SFENet2): Conv2d(64, 64, kernel_size=(3, 3), stride=(1, 1), padding=(1, 1))
    (RDBs): ModuleList(
      (0): RDB(
        (convs): Sequential(
          (0): RDB_Conv(
            (conv): Sequential(
              (0): Conv2d(64, 32, kernel_size=(3, 3), stride=(1, 1), padding=(1, 1))
              (1): ReLU()
            )
          )
          (1): RDB_Conv(
            (conv): Sequential(
              (0): Conv2d(96, 32, kernel_size=(3, 3), stride=(1, 1), padding=(1, 1))
              (1): ReLU()
            )
          )
          (2): RDB_Conv(
            (conv): Sequential(
              (0): Conv2d(128, 32, kernel_size=(3, 3), stride=(1, 1), padding=(1, 1))
              (1): ReLU()
            )
          )
          (3): RDB_Conv(
            (conv): Sequential(
              (0): Conv2d(160, 32, kernel_size=(3, 3), stride=(1, 1), padding=(1, 1))
              (1): ReLU()
            )
          )
          (4): RDB_Conv(
            (conv): Sequential(
              (0): Conv2d(192, 32, kernel_size=(3, 3), stride=(1, 1), padding=(1, 1))
              (1): ReLU()
            )
          )
          (5): RDB_Conv(
            (conv): Sequential(
              (0): Conv2d(224, 32, kernel_size=(3, 3), stride=(1, 1), padding=(1, 1))
              (1): ReLU()
            )
          )
          (6): RDB_Conv(
            (conv): Sequential(
              (0): Conv2d(256, 32, kernel_size=(3, 3), stride=(1, 1), padding=(1, 1))
              (1): ReLU()
            )
          )
          (7): RDB_Conv(
            (conv): Sequential(
              (0): Conv2d(288, 32, kernel_size=(3, 3), stride=(1, 1), padding=(1, 1))
              (1): ReLU()
            )
          )
        )
        (LFF): Conv2d(320, 64, kernel_size=(1, 1), stride=(1, 1))
      )
      (1): RDB(
        (convs): Sequential(
          (0): RDB_Conv(
            (conv): Sequential(
              (0): Conv2d(64, 32, kernel_size=(3, 3), stride=(1, 1), padding=(1, 1))
              (1): ReLU()
            )
          )
          (1): RDB_Conv(
            (conv): Sequential(
              (0): Conv2d(96, 32, kernel_size=(3, 3), stride=(1, 1), padding=(1, 1))
              (1): ReLU()
            )
          )
          (2): RDB_Conv(
            (conv): Sequential(
              (0): Conv2d(128, 32, kernel_size=(3, 3), stride=(1, 1), padding=(1, 1))
              (1): ReLU()
            )
          )
          (3): RDB_Conv(
            (conv): Sequential(
              (0): Conv2d(160, 32, kernel_size=(3, 3), stride=(1, 1), padding=(1, 1))
              (1): ReLU()
            )
          )
          (4): RDB_Conv(
            (conv): Sequential(
              (0): Conv2d(192, 32, kernel_size=(3, 3), stride=(1, 1), padding=(1, 1))
              (1): ReLU()
            )
          )
          (5): RDB_Conv(
            (conv): Sequential(
              (0): Conv2d(224, 32, kernel_size=(3, 3), stride=(1, 1), padding=(1, 1))
              (1): ReLU()
            )
          )
          (6): RDB_Conv(
            (conv): Sequential(
              (0): Conv2d(256, 32, kernel_size=(3, 3), stride=(1, 1), padding=(1, 1))
              (1): ReLU()
            )
          )
          (7): RDB_Conv(
            (conv): Sequential(
              (0): Conv2d(288, 32, kernel_size=(3, 3), stride=(1, 1), padding=(1, 1))
              (1): ReLU()
            )
          )
        )
        (LFF): Conv2d(320, 64, kernel_size=(1, 1), stride=(1, 1))
      )
      (2): RDB(
        (convs): Sequential(
          (0): RDB_Conv(
            (conv): Sequential(
              (0): Conv2d(64, 32, kernel_size=(3, 3), stride=(1, 1), padding=(1, 1))
              (1): ReLU()
            )
          )
          (1): RDB_Conv(
            (conv): Sequential(
              (0): Conv2d(96, 32, kernel_size=(3, 3), stride=(1, 1), padding=(1, 1))
              (1): ReLU()
            )
          )
          (2): RDB_Conv(
            (conv): Sequential(
              (0): Conv2d(128, 32, kernel_size=(3, 3), stride=(1, 1), padding=(1, 1))
              (1): ReLU()
            )
          )
          (3): RDB_Conv(
            (conv): Sequential(
              (0): Conv2d(160, 32, kernel_size=(3, 3), stride=(1, 1), padding=(1, 1))
              (1): ReLU()
            )
          )
          (4): RDB_Conv(
            (conv): Sequential(
              (0): Conv2d(192, 32, kernel_size=(3, 3), stride=(1, 1), padding=(1, 1))
              (1): ReLU()
            )
          )
          (5): RDB_Conv(
            (conv): Sequential(
              (0): Conv2d(224, 32, kernel_size=(3, 3), stride=(1, 1), padding=(1, 1))
              (1): ReLU()
            )
          )
          (6): RDB_Conv(
            (conv): Sequential(
              (0): Conv2d(256, 32, kernel_size=(3, 3), stride=(1, 1), padding=(1, 1))
              (1): ReLU()
            )
          )
          (7): RDB_Conv(
            (conv): Sequential(
              (0): Conv2d(288, 32, kernel_size=(3, 3), stride=(1, 1), padding=(1, 1))
              (1): ReLU()
            )
          )
        )
        (LFF): Conv2d(320, 64, kernel_size=(1, 1), stride=(1, 1))
      )
      (3): RDB(
        (convs): Sequential(
          (0): RDB_Conv(
            (conv): Sequential(
              (0): Conv2d(64, 32, kernel_size=(3, 3), stride=(1, 1), padding=(1, 1))
              (1): ReLU()
            )
          )
          (1): RDB_Conv(
            (conv): Sequential(
              (0): Conv2d(96, 32, kernel_size=(3, 3), stride=(1, 1), padding=(1, 1))
              (1): ReLU()
            )
          )
          (2): RDB_Conv(
            (conv): Sequential(
              (0): Conv2d(128, 32, kernel_size=(3, 3), stride=(1, 1), padding=(1, 1))
              (1): ReLU()
            )
          )
          (3): RDB_Conv(
            (conv): Sequential(
              (0): Conv2d(160, 32, kernel_size=(3, 3), stride=(1, 1), padding=(1, 1))
              (1): ReLU()
            )
          )
          (4): RDB_Conv(
            (conv): Sequential(
              (0): Conv2d(192, 32, kernel_size=(3, 3), stride=(1, 1), padding=(1, 1))
              (1): ReLU()
            )
          )
          (5): RDB_Conv(
            (conv): Sequential(
              (0): Conv2d(224, 32, kernel_size=(3, 3), stride=(1, 1), padding=(1, 1))
              (1): ReLU()
            )
          )
          (6): RDB_Conv(
            (conv): Sequential(
              (0): Conv2d(256, 32, kernel_size=(3, 3), stride=(1, 1), padding=(1, 1))
              (1): ReLU()
            )
          )
          (7): RDB_Conv(
            (conv): Sequential(
              (0): Conv2d(288, 32, kernel_size=(3, 3), stride=(1, 1), padding=(1, 1))
              (1): ReLU()
            )
          )
        )
        (LFF): Conv2d(320, 64, kernel_size=(1, 1), stride=(1, 1))
      )
      (4): RDB(
        (convs): Sequential(
          (0): RDB_Conv(
            (conv): Sequential(
              (0): Conv2d(64, 32, kernel_size=(3, 3), stride=(1, 1), padding=(1, 1))
              (1): ReLU()
            )
          )
          (1): RDB_Conv(
            (conv): Sequential(
              (0): Conv2d(96, 32, kernel_size=(3, 3), stride=(1, 1), padding=(1, 1))
              (1): ReLU()
            )
          )
          (2): RDB_Conv(
            (conv): Sequential(
              (0): Conv2d(128, 32, kernel_size=(3, 3), stride=(1, 1), padding=(1, 1))
              (1): ReLU()
            )
          )
          (3): RDB_Conv(
            (conv): Sequential(
              (0): Conv2d(160, 32, kernel_size=(3, 3), stride=(1, 1), padding=(1, 1))
              (1): ReLU()
            )
          )
          (4): RDB_Conv(
            (conv): Sequential(
              (0): Conv2d(192, 32, kernel_size=(3, 3), stride=(1, 1), padding=(1, 1))
              (1): ReLU()
            )
          )
          (5): RDB_Conv(
            (conv): Sequential(
              (0): Conv2d(224, 32, kernel_size=(3, 3), stride=(1, 1), padding=(1, 1))
              (1): ReLU()
            )
          )
          (6): RDB_Conv(
            (conv): Sequential(
              (0): Conv2d(256, 32, kernel_size=(3, 3), stride=(1, 1), padding=(1, 1))
              (1): ReLU()
            )
          )
          (7): RDB_Conv(
            (conv): Sequential(
              (0): Conv2d(288, 32, kernel_size=(3, 3), stride=(1, 1), padding=(1, 1))
              (1): ReLU()
            )
          )
        )
        (LFF): Conv2d(320, 64, kernel_size=(1, 1), stride=(1, 1))
      )
      (5): RDB(
        (convs): Sequential(
          (0): RDB_Conv(
            (conv): Sequential(
              (0): Conv2d(64, 32, kernel_size=(3, 3), stride=(1, 1), padding=(1, 1))
              (1): ReLU()
            )
          )
          (1): RDB_Conv(
            (conv): Sequential(
              (0): Conv2d(96, 32, kernel_size=(3, 3), stride=(1, 1), padding=(1, 1))
              (1): ReLU()
            )
          )
          (2): RDB_Conv(
            (conv): Sequential(
              (0): Conv2d(128, 32, kernel_size=(3, 3), stride=(1, 1), padding=(1, 1))
              (1): ReLU()
            )
          )
          (3): RDB_Conv(
            (conv): Sequential(
              (0): Conv2d(160, 32, kernel_size=(3, 3), stride=(1, 1), padding=(1, 1))
              (1): ReLU()
            )
          )
          (4): RDB_Conv(
            (conv): Sequential(
              (0): Conv2d(192, 32, kernel_size=(3, 3), stride=(1, 1), padding=(1, 1))
              (1): ReLU()
            )
          )
          (5): RDB_Conv(
            (conv): Sequential(
              (0): Conv2d(224, 32, kernel_size=(3, 3), stride=(1, 1), padding=(1, 1))
              (1): ReLU()
            )
          )
          (6): RDB_Conv(
            (conv): Sequential(
              (0): Conv2d(256, 32, kernel_size=(3, 3), stride=(1, 1), padding=(1, 1))
              (1): ReLU()
            )
          )
          (7): RDB_Conv(
            (conv): Sequential(
              (0): Conv2d(288, 32, kernel_size=(3, 3), stride=(1, 1), padding=(1, 1))
              (1): ReLU()
            )
          )
        )
        (LFF): Conv2d(320, 64, kernel_size=(1, 1), stride=(1, 1))
      )
    )
    (GFF): Sequential(
      (0): Conv2d(384, 64, kernel_size=(1, 1), stride=(1, 1))
      (1): Conv2d(64, 64, kernel_size=(3, 3), stride=(1, 1), padding=(1, 1))
    )
    (GW): GenWeights(
      (meta_block): Sequential(
        (0): Conv2d(1, 32, kernel_size=(3, 3), stride=(1, 1), padding=(1, 1))
        (1): ReLU(inplace=True)
        (2): Conv2d(32, 64, kernel_size=(3, 3), stride=(1, 1), padding=(1, 1))
        (3): ReLU(inplace=True)
        (4): Conv2d(64, 64, kernel_size=(3, 3), stride=(1, 1), padding=(1, 1))
        (5): ReLU(inplace=True)
        (6): Conv2d(64, 64, kernel_size=(3, 3), stride=(1, 1), padding=(1, 1))
        (7): ReLU(inplace=True)
        (8): Conv2d(64, 64, kernel_size=(3, 3), stride=(1, 1), padding=(1, 1))
      )
    )
    (RFN): FUSE_RDN(
      (SFENet1): Conv2d(2, 64, kernel_size=(3, 3), stride=(1, 1), padding=(1, 1))
      (SFENet2): Conv2d(64, 64, kernel_size=(3, 3), stride=(1, 1), padding=(1, 1))
      (RDBs): ModuleList(
        (0): RDB(
          (convs): Sequential(
            (0): RDB_Conv(
              (conv): Sequential(
                (0): Conv2d(64, 12, kernel_size=(3, 3), stride=(1, 1), padding=(1, 1))
                (1): ReLU()
              )
            )
            (1): RDB_Conv(
              (conv): Sequential(
                (0): Conv2d(76, 12, kernel_size=(3, 3), stride=(1, 1), padding=(1, 1))
                (1): ReLU()
              )
            )
            (2): RDB_Conv(
              (conv): Sequential(
                (0): Conv2d(88, 12, kernel_size=(3, 3), stride=(1, 1), padding=(1, 1))
                (1): ReLU()
              )
            )
            (3): RDB_Conv(
              (conv): Sequential(
                (0): Conv2d(100, 12, kernel_size=(3, 3), stride=(1, 1), padding=(1, 1))
                (1): ReLU()
              )
            )
            (4): RDB_Conv(
              (conv): Sequential(
                (0): Conv2d(112, 12, kernel_size=(3, 3), stride=(1, 1), padding=(1, 1))
                (1): ReLU()
              )
            )
            (5): RDB_Conv(
              (conv): Sequential(
                (0): Conv2d(124, 12, kernel_size=(3, 3), stride=(1, 1), padding=(1, 1))
                (1): ReLU()
              )
            )
          )
          (LFF): Conv2d(136, 64, kernel_size=(1, 1), stride=(1, 1))
        )
        (1): RDB(
          (convs): Sequential(
            (0): RDB_Conv(
              (conv): Sequential(
                (0): Conv2d(64, 12, kernel_size=(3, 3), stride=(1, 1), padding=(1, 1))
                (1): ReLU()
              )
            )
            (1): RDB_Conv(
              (conv): Sequential(
                (0): Conv2d(76, 12, kernel_size=(3, 3), stride=(1, 1), padding=(1, 1))
                (1): ReLU()
              )
            )
            (2): RDB_Conv(
              (conv): Sequential(
                (0): Conv2d(88, 12, kernel_size=(3, 3), stride=(1, 1), padding=(1, 1))
                (1): ReLU()
              )
            )
            (3): RDB_Conv(
              (conv): Sequential(
                (0): Conv2d(100, 12, kernel_size=(3, 3), stride=(1, 1), padding=(1, 1))
                (1): ReLU()
              )
            )
            (4): RDB_Conv(
              (conv): Sequential(
                (0): Conv2d(112, 12, kernel_size=(3, 3), stride=(1, 1), padding=(1, 1))
                (1): ReLU()
              )
            )
            (5): RDB_Conv(
              (conv): Sequential(
                (0): Conv2d(124, 12, kernel_size=(3, 3), stride=(1, 1), padding=(1, 1))
                (1): ReLU()
              )
            )
          )
          (LFF): Conv2d(136, 64, kernel_size=(1, 1), stride=(1, 1))
        )
        (2): RDB(
          (convs): Sequential(
            (0): RDB_Conv(
              (conv): Sequential(
                (0): Conv2d(64, 12, kernel_size=(3, 3), stride=(1, 1), padding=(1, 1))
                (1): ReLU()
              )
            )
            (1): RDB_Conv(
              (conv): Sequential(
                (0): Conv2d(76, 12, kernel_size=(3, 3), stride=(1, 1), padding=(1, 1))
                (1): ReLU()
              )
            )
            (2): RDB_Conv(
              (conv): Sequential(
                (0): Conv2d(88, 12, kernel_size=(3, 3), stride=(1, 1), padding=(1, 1))
                (1): ReLU()
              )
            )
            (3): RDB_Conv(
              (conv): Sequential(
                (0): Conv2d(100, 12, kernel_size=(3, 3), stride=(1, 1), padding=(1, 1))
                (1): ReLU()
              )
            )
            (4): RDB_Conv(
              (conv): Sequential(
                (0): Conv2d(112, 12, kernel_size=(3, 3), stride=(1, 1), padding=(1, 1))
                (1): ReLU()
              )
            )
            (5): RDB_Conv(
              (conv): Sequential(
                (0): Conv2d(124, 12, kernel_size=(3, 3), stride=(1, 1), padding=(1, 1))
                (1): ReLU()
              )
            )
          )
          (LFF): Conv2d(136, 64, kernel_size=(1, 1), stride=(1, 1))
        )
        (3): RDB(
          (convs): Sequential(
            (0): RDB_Conv(
              (conv): Sequential(
                (0): Conv2d(64, 12, kernel_size=(3, 3), stride=(1, 1), padding=(1, 1))
                (1): ReLU()
              )
            )
            (1): RDB_Conv(
              (conv): Sequential(
                (0): Conv2d(76, 12, kernel_size=(3, 3), stride=(1, 1), padding=(1, 1))
                (1): ReLU()
              )
            )
            (2): RDB_Conv(
              (conv): Sequential(
                (0): Conv2d(88, 12, kernel_size=(3, 3), stride=(1, 1), padding=(1, 1))
                (1): ReLU()
              )
            )
            (3): RDB_Conv(
              (conv): Sequential(
                (0): Conv2d(100, 12, kernel_size=(3, 3), stride=(1, 1), padding=(1, 1))
                (1): ReLU()
              )
            )
            (4): RDB_Conv(
              (conv): Sequential(
                (0): Conv2d(112, 12, kernel_size=(3, 3), stride=(1, 1), padding=(1, 1))
                (1): ReLU()
              )
            )
            (5): RDB_Conv(
              (conv): Sequential(
                (0): Conv2d(124, 12, kernel_size=(3, 3), stride=(1, 1), padding=(1, 1))
                (1): ReLU()
              )
            )
          )
          (LFF): Conv2d(136, 64, kernel_size=(1, 1), stride=(1, 1))
        )
      )
      (GFF): Sequential(
        (0): Conv2d(256, 64, kernel_size=(1, 1), stride=(1, 1))
        (1): Conv2d(64, 64, kernel_size=(3, 3), stride=(1, 1), padding=(1, 1))
      )
      (UPNet): Sequential(
        (0): Conv2d(64, 1, kernel_size=(3, 3), stride=(1, 1), padding=(1, 1))
      )
    )
  )
)
[Epoch 2]	Learning rate: 1.00e-4
[18000/50000]	[L1: 102.4575]	73.2+25.6s
[36000/50000]	[L1: 78.6490]	68.5+25.4s

Evaluation:
[TEST x5]	PSNR: 31.2049 SSIM: 0.8242 (Best: 31.2049 0.8242 @epoch 1)
Total time: 1249.44s

[Epoch 3]	Learning rate: 1.00e-4
[18000/50000]	[L1: 49.9840]	68.4+20.0s
[36000/50000]	[L1: 49.4163]	68.6+20.0s
…
